node {
  name: "input_1"
  op: "Placeholder"
  attr {
    key: "dtype"
    value {
      type: DT_FLOAT
    }
  }
  attr {
    key: "shape"
    value {
      shape {
        dim {
          size: -1
        }
        dim {
          size: 126
        }
        dim {
          size: 40
        }
      }
    }
  }
}
node {
  name: "bidirectional/forward_lstm/kernel/Initializer/random_uniform/shape"
  op: "Const"
  attr {
    key: "_class"
    value {
      list {
        s: "loc:@bidirectional/forward_lstm/kernel"
      }
    }
  }
  attr {
    key: "dtype"
    value {
      type: DT_INT32
    }
  }
  attr {
    key: "value"
    value {
      tensor {
        dtype: DT_INT32
        tensor_shape {
          dim {
            size: 2
          }
        }
        tensor_content: "(\000\000\000\000\002\000\000"
      }
    }
  }
}
node {
  name: "bidirectional/forward_lstm/kernel/Initializer/random_uniform/min"
  op: "Const"
  attr {
    key: "_class"
    value {
      list {
        s: "loc:@bidirectional/forward_lstm/kernel"
      }
    }
  }
  attr {
    key: "dtype"
    value {
      type: DT_FLOAT
    }
  }
  attr {
    key: "value"
    value {
      tensor {
        dtype: DT_FLOAT
        tensor_shape {
        }
        float_val: -0.10425720363855362
      }
    }
  }
}
node {
  name: "bidirectional/forward_lstm/kernel/Initializer/random_uniform/max"
  op: "Const"
  attr {
    key: "_class"
    value {
      list {
        s: "loc:@bidirectional/forward_lstm/kernel"
      }
    }
  }
  attr {
    key: "dtype"
    value {
      type: DT_FLOAT
    }
  }
  attr {
    key: "value"
    value {
      tensor {
        dtype: DT_FLOAT
        tensor_shape {
        }
        float_val: 0.10425720363855362
      }
    }
  }
}
node {
  name: "bidirectional/forward_lstm/kernel/Initializer/random_uniform/RandomUniform"
  op: "RandomUniform"
  input: "bidirectional/forward_lstm/kernel/Initializer/random_uniform/shape"
  attr {
    key: "T"
    value {
      type: DT_INT32
    }
  }
  attr {
    key: "_class"
    value {
      list {
        s: "loc:@bidirectional/forward_lstm/kernel"
      }
    }
  }
  attr {
    key: "dtype"
    value {
      type: DT_FLOAT
    }
  }
  attr {
    key: "seed"
    value {
      i: 0
    }
  }
  attr {
    key: "seed2"
    value {
      i: 0
    }
  }
}
node {
  name: "bidirectional/forward_lstm/kernel/Initializer/random_uniform/sub"
  op: "Sub"
  input: "bidirectional/forward_lstm/kernel/Initializer/random_uniform/max"
  input: "bidirectional/forward_lstm/kernel/Initializer/random_uniform/min"
  attr {
    key: "T"
    value {
      type: DT_FLOAT
    }
  }
  attr {
    key: "_class"
    value {
      list {
        s: "loc:@bidirectional/forward_lstm/kernel"
      }
    }
  }
}
node {
  name: "bidirectional/forward_lstm/kernel/Initializer/random_uniform/mul"
  op: "Mul"
  input: "bidirectional/forward_lstm/kernel/Initializer/random_uniform/RandomUniform"
  input: "bidirectional/forward_lstm/kernel/Initializer/random_uniform/sub"
  attr {
    key: "T"
    value {
      type: DT_FLOAT
    }
  }
  attr {
    key: "_class"
    value {
      list {
        s: "loc:@bidirectional/forward_lstm/kernel"
      }
    }
  }
}
node {
  name: "bidirectional/forward_lstm/kernel/Initializer/random_uniform"
  op: "Add"
  input: "bidirectional/forward_lstm/kernel/Initializer/random_uniform/mul"
  input: "bidirectional/forward_lstm/kernel/Initializer/random_uniform/min"
  attr {
    key: "T"
    value {
      type: DT_FLOAT
    }
  }
  attr {
    key: "_class"
    value {
      list {
        s: "loc:@bidirectional/forward_lstm/kernel"
      }
    }
  }
}
node {
  name: "bidirectional/forward_lstm/kernel"
  op: "VarHandleOp"
  attr {
    key: "_class"
    value {
      list {
        s: "loc:@bidirectional/forward_lstm/kernel"
      }
    }
  }
  attr {
    key: "container"
    value {
      s: ""
    }
  }
  attr {
    key: "dtype"
    value {
      type: DT_FLOAT
    }
  }
  attr {
    key: "shape"
    value {
      shape {
        dim {
          size: 40
        }
        dim {
          size: 512
        }
      }
    }
  }
  attr {
    key: "shared_name"
    value {
      s: "bidirectional/forward_lstm/kernel"
    }
  }
}
node {
  name: "bidirectional/forward_lstm/kernel/IsInitialized/VarIsInitializedOp"
  op: "VarIsInitializedOp"
  input: "bidirectional/forward_lstm/kernel"
}
node {
  name: "bidirectional/forward_lstm/kernel/Assign"
  op: "AssignVariableOp"
  input: "bidirectional/forward_lstm/kernel"
  input: "bidirectional/forward_lstm/kernel/Initializer/random_uniform"
  attr {
    key: "dtype"
    value {
      type: DT_FLOAT
    }
  }
}
node {
  name: "bidirectional/forward_lstm/kernel/Read/ReadVariableOp"
  op: "ReadVariableOp"
  input: "bidirectional/forward_lstm/kernel"
  attr {
    key: "dtype"
    value {
      type: DT_FLOAT
    }
  }
}
node {
  name: "bidirectional/forward_lstm/recurrent_kernel/Initializer/random_normal/shape"
  op: "Const"
  attr {
    key: "_class"
    value {
      list {
        s: "loc:@bidirectional/forward_lstm/recurrent_kernel"
      }
    }
  }
  attr {
    key: "dtype"
    value {
      type: DT_INT32
    }
  }
  attr {
    key: "value"
    value {
      tensor {
        dtype: DT_INT32
        tensor_shape {
          dim {
            size: 2
          }
        }
        tensor_content: "\000\002\000\000\200\000\000\000"
      }
    }
  }
}
node {
  name: "bidirectional/forward_lstm/recurrent_kernel/Initializer/random_normal/mean"
  op: "Const"
  attr {
    key: "_class"
    value {
      list {
        s: "loc:@bidirectional/forward_lstm/recurrent_kernel"
      }
    }
  }
  attr {
    key: "dtype"
    value {
      type: DT_FLOAT
    }
  }
  attr {
    key: "value"
    value {
      tensor {
        dtype: DT_FLOAT
        tensor_shape {
        }
        float_val: 0.0
      }
    }
  }
}
node {
  name: "bidirectional/forward_lstm/recurrent_kernel/Initializer/random_normal/stddev"
  op: "Const"
  attr {
    key: "_class"
    value {
      list {
        s: "loc:@bidirectional/forward_lstm/recurrent_kernel"
      }
    }
  }
  attr {
    key: "dtype"
    value {
      type: DT_FLOAT
    }
  }
  attr {
    key: "value"
    value {
      tensor {
        dtype: DT_FLOAT
        tensor_shape {
        }
        float_val: 1.0
      }
    }
  }
}
node {
  name: "bidirectional/forward_lstm/recurrent_kernel/Initializer/random_normal/RandomStandardNormal"
  op: "RandomStandardNormal"
  input: "bidirectional/forward_lstm/recurrent_kernel/Initializer/random_normal/shape"
  attr {
    key: "T"
    value {
      type: DT_INT32
    }
  }
  attr {
    key: "_class"
    value {
      list {
        s: "loc:@bidirectional/forward_lstm/recurrent_kernel"
      }
    }
  }
  attr {
    key: "dtype"
    value {
      type: DT_FLOAT
    }
  }
  attr {
    key: "seed"
    value {
      i: 0
    }
  }
  attr {
    key: "seed2"
    value {
      i: 0
    }
  }
}
node {
  name: "bidirectional/forward_lstm/recurrent_kernel/Initializer/random_normal/mul"
  op: "Mul"
  input: "bidirectional/forward_lstm/recurrent_kernel/Initializer/random_normal/RandomStandardNormal"
  input: "bidirectional/forward_lstm/recurrent_kernel/Initializer/random_normal/stddev"
  attr {
    key: "T"
    value {
      type: DT_FLOAT
    }
  }
  attr {
    key: "_class"
    value {
      list {
        s: "loc:@bidirectional/forward_lstm/recurrent_kernel"
      }
    }
  }
}
node {
  name: "bidirectional/forward_lstm/recurrent_kernel/Initializer/random_normal"
  op: "Add"
  input: "bidirectional/forward_lstm/recurrent_kernel/Initializer/random_normal/mul"
  input: "bidirectional/forward_lstm/recurrent_kernel/Initializer/random_normal/mean"
  attr {
    key: "T"
    value {
      type: DT_FLOAT
    }
  }
  attr {
    key: "_class"
    value {
      list {
        s: "loc:@bidirectional/forward_lstm/recurrent_kernel"
      }
    }
  }
}
node {
  name: "bidirectional/forward_lstm/recurrent_kernel/Initializer/Qr"
  op: "Qr"
  input: "bidirectional/forward_lstm/recurrent_kernel/Initializer/random_normal"
  attr {
    key: "T"
    value {
      type: DT_FLOAT
    }
  }
  attr {
    key: "_class"
    value {
      list {
        s: "loc:@bidirectional/forward_lstm/recurrent_kernel"
      }
    }
  }
  attr {
    key: "full_matrices"
    value {
      b: false
    }
  }
}
node {
  name: "bidirectional/forward_lstm/recurrent_kernel/Initializer/DiagPart"
  op: "DiagPart"
  input: "bidirectional/forward_lstm/recurrent_kernel/Initializer/Qr:1"
  attr {
    key: "T"
    value {
      type: DT_FLOAT
    }
  }
  attr {
    key: "_class"
    value {
      list {
        s: "loc:@bidirectional/forward_lstm/recurrent_kernel"
      }
    }
  }
}
node {
  name: "bidirectional/forward_lstm/recurrent_kernel/Initializer/Sign"
  op: "Sign"
  input: "bidirectional/forward_lstm/recurrent_kernel/Initializer/DiagPart"
  attr {
    key: "T"
    value {
      type: DT_FLOAT
    }
  }
  attr {
    key: "_class"
    value {
      list {
        s: "loc:@bidirectional/forward_lstm/recurrent_kernel"
      }
    }
  }
}
node {
  name: "bidirectional/forward_lstm/recurrent_kernel/Initializer/mul"
  op: "Mul"
  input: "bidirectional/forward_lstm/recurrent_kernel/Initializer/Qr"
  input: "bidirectional/forward_lstm/recurrent_kernel/Initializer/Sign"
  attr {
    key: "T"
    value {
      type: DT_FLOAT
    }
  }
  attr {
    key: "_class"
    value {
      list {
        s: "loc:@bidirectional/forward_lstm/recurrent_kernel"
      }
    }
  }
}
node {
  name: "bidirectional/forward_lstm/recurrent_kernel/Initializer/matrix_transpose/transpose/perm"
  op: "Const"
  attr {
    key: "_class"
    value {
      list {
        s: "loc:@bidirectional/forward_lstm/recurrent_kernel"
      }
    }
  }
  attr {
    key: "dtype"
    value {
      type: DT_INT32
    }
  }
  attr {
    key: "value"
    value {
      tensor {
        dtype: DT_INT32
        tensor_shape {
          dim {
            size: 2
          }
        }
        tensor_content: "\001\000\000\000\000\000\000\000"
      }
    }
  }
}
node {
  name: "bidirectional/forward_lstm/recurrent_kernel/Initializer/matrix_transpose/transpose"
  op: "Transpose"
  input: "bidirectional/forward_lstm/recurrent_kernel/Initializer/mul"
  input: "bidirectional/forward_lstm/recurrent_kernel/Initializer/matrix_transpose/transpose/perm"
  attr {
    key: "T"
    value {
      type: DT_FLOAT
    }
  }
  attr {
    key: "Tperm"
    value {
      type: DT_INT32
    }
  }
  attr {
    key: "_class"
    value {
      list {
        s: "loc:@bidirectional/forward_lstm/recurrent_kernel"
      }
    }
  }
}
node {
  name: "bidirectional/forward_lstm/recurrent_kernel/Initializer/Reshape/shape"
  op: "Const"
  attr {
    key: "_class"
    value {
      list {
        s: "loc:@bidirectional/forward_lstm/recurrent_kernel"
      }
    }
  }
  attr {
    key: "dtype"
    value {
      type: DT_INT32
    }
  }
  attr {
    key: "value"
    value {
      tensor {
        dtype: DT_INT32
        tensor_shape {
          dim {
            size: 2
          }
        }
        tensor_content: "\200\000\000\000\000\002\000\000"
      }
    }
  }
}
node {
  name: "bidirectional/forward_lstm/recurrent_kernel/Initializer/Reshape"
  op: "Reshape"
  input: "bidirectional/forward_lstm/recurrent_kernel/Initializer/matrix_transpose/transpose"
  input: "bidirectional/forward_lstm/recurrent_kernel/Initializer/Reshape/shape"
  attr {
    key: "T"
    value {
      type: DT_FLOAT
    }
  }
  attr {
    key: "Tshape"
    value {
      type: DT_INT32
    }
  }
  attr {
    key: "_class"
    value {
      list {
        s: "loc:@bidirectional/forward_lstm/recurrent_kernel"
      }
    }
  }
}
node {
  name: "bidirectional/forward_lstm/recurrent_kernel/Initializer/mul_1/x"
  op: "Const"
  attr {
    key: "_class"
    value {
      list {
        s: "loc:@bidirectional/forward_lstm/recurrent_kernel"
      }
    }
  }
  attr {
    key: "dtype"
    value {
      type: DT_FLOAT
    }
  }
  attr {
    key: "value"
    value {
      tensor {
        dtype: DT_FLOAT
        tensor_shape {
        }
        float_val: 1.0
      }
    }
  }
}
node {
  name: "bidirectional/forward_lstm/recurrent_kernel/Initializer/mul_1"
  op: "Mul"
  input: "bidirectional/forward_lstm/recurrent_kernel/Initializer/mul_1/x"
  input: "bidirectional/forward_lstm/recurrent_kernel/Initializer/Reshape"
  attr {
    key: "T"
    value {
      type: DT_FLOAT
    }
  }
  attr {
    key: "_class"
    value {
      list {
        s: "loc:@bidirectional/forward_lstm/recurrent_kernel"
      }
    }
  }
}
node {
  name: "bidirectional/forward_lstm/recurrent_kernel"
  op: "VarHandleOp"
  attr {
    key: "_class"
    value {
      list {
        s: "loc:@bidirectional/forward_lstm/recurrent_kernel"
      }
    }
  }
  attr {
    key: "container"
    value {
      s: ""
    }
  }
  attr {
    key: "dtype"
    value {
      type: DT_FLOAT
    }
  }
  attr {
    key: "shape"
    value {
      shape {
        dim {
          size: 128
        }
        dim {
          size: 512
        }
      }
    }
  }
  attr {
    key: "shared_name"
    value {
      s: "bidirectional/forward_lstm/recurrent_kernel"
    }
  }
}
node {
  name: "bidirectional/forward_lstm/recurrent_kernel/IsInitialized/VarIsInitializedOp"
  op: "VarIsInitializedOp"
  input: "bidirectional/forward_lstm/recurrent_kernel"
}
node {
  name: "bidirectional/forward_lstm/recurrent_kernel/Assign"
  op: "AssignVariableOp"
  input: "bidirectional/forward_lstm/recurrent_kernel"
  input: "bidirectional/forward_lstm/recurrent_kernel/Initializer/mul_1"
  attr {
    key: "dtype"
    value {
      type: DT_FLOAT
    }
  }
}
node {
  name: "bidirectional/forward_lstm/recurrent_kernel/Read/ReadVariableOp"
  op: "ReadVariableOp"
  input: "bidirectional/forward_lstm/recurrent_kernel"
  attr {
    key: "dtype"
    value {
      type: DT_FLOAT
    }
  }
}
node {
  name: "bidirectional/forward_lstm/bias/Initializer/zeros"
  op: "Const"
  attr {
    key: "_class"
    value {
      list {
        s: "loc:@bidirectional/forward_lstm/bias"
      }
    }
  }
  attr {
    key: "dtype"
    value {
      type: DT_FLOAT
    }
  }
  attr {
    key: "value"
    value {
      tensor {
        dtype: DT_FLOAT
        tensor_shape {
          dim {
            size: 128
          }
        }
        float_val: 0.0
      }
    }
  }
}
node {
  name: "bidirectional/forward_lstm/bias/Initializer/ones"
  op: "Const"
  attr {
    key: "_class"
    value {
      list {
        s: "loc:@bidirectional/forward_lstm/bias"
      }
    }
  }
  attr {
    key: "dtype"
    value {
      type: DT_FLOAT
    }
  }
  attr {
    key: "value"
    value {
      tensor {
        dtype: DT_FLOAT
        tensor_shape {
          dim {
            size: 128
          }
        }
        float_val: 1.0
      }
    }
  }
}
node {
  name: "bidirectional/forward_lstm/bias/Initializer/zeros_1"
  op: "Const"
  attr {
    key: "_class"
    value {
      list {
        s: "loc:@bidirectional/forward_lstm/bias"
      }
    }
  }
  attr {
    key: "dtype"
    value {
      type: DT_FLOAT
    }
  }
  attr {
    key: "value"
    value {
      tensor {
        dtype: DT_FLOAT
        tensor_shape {
          dim {
            size: 256
          }
        }
        float_val: 0.0
      }
    }
  }
}
node {
  name: "bidirectional/forward_lstm/bias/Initializer/concat/axis"
  op: "Const"
  attr {
    key: "_class"
    value {
      list {
        s: "loc:@bidirectional/forward_lstm/bias"
      }
    }
  }
  attr {
    key: "dtype"
    value {
      type: DT_INT32
    }
  }
  attr {
    key: "value"
    value {
      tensor {
        dtype: DT_INT32
        tensor_shape {
        }
        int_val: 0
      }
    }
  }
}
node {
  name: "bidirectional/forward_lstm/bias/Initializer/concat"
  op: "ConcatV2"
  input: "bidirectional/forward_lstm/bias/Initializer/zeros"
  input: "bidirectional/forward_lstm/bias/Initializer/ones"
  input: "bidirectional/forward_lstm/bias/Initializer/zeros_1"
  input: "bidirectional/forward_lstm/bias/Initializer/concat/axis"
  attr {
    key: "N"
    value {
      i: 3
    }
  }
  attr {
    key: "T"
    value {
      type: DT_FLOAT
    }
  }
  attr {
    key: "Tidx"
    value {
      type: DT_INT32
    }
  }
  attr {
    key: "_class"
    value {
      list {
        s: "loc:@bidirectional/forward_lstm/bias"
      }
    }
  }
}
node {
  name: "bidirectional/forward_lstm/bias"
  op: "VarHandleOp"
  attr {
    key: "_class"
    value {
      list {
        s: "loc:@bidirectional/forward_lstm/bias"
      }
    }
  }
  attr {
    key: "container"
    value {
      s: ""
    }
  }
  attr {
    key: "dtype"
    value {
      type: DT_FLOAT
    }
  }
  attr {
    key: "shape"
    value {
      shape {
        dim {
          size: 512
        }
      }
    }
  }
  attr {
    key: "shared_name"
    value {
      s: "bidirectional/forward_lstm/bias"
    }
  }
}
node {
  name: "bidirectional/forward_lstm/bias/IsInitialized/VarIsInitializedOp"
  op: "VarIsInitializedOp"
  input: "bidirectional/forward_lstm/bias"
}
node {
  name: "bidirectional/forward_lstm/bias/Assign"
  op: "AssignVariableOp"
  input: "bidirectional/forward_lstm/bias"
  input: "bidirectional/forward_lstm/bias/Initializer/concat"
  attr {
    key: "dtype"
    value {
      type: DT_FLOAT
    }
  }
}
node {
  name: "bidirectional/forward_lstm/bias/Read/ReadVariableOp"
  op: "ReadVariableOp"
  input: "bidirectional/forward_lstm/bias"
  attr {
    key: "dtype"
    value {
      type: DT_FLOAT
    }
  }
}
node {
  name: "bidirectional/backward_lstm/kernel/Initializer/random_uniform/shape"
  op: "Const"
  attr {
    key: "_class"
    value {
      list {
        s: "loc:@bidirectional/backward_lstm/kernel"
      }
    }
  }
  attr {
    key: "dtype"
    value {
      type: DT_INT32
    }
  }
  attr {
    key: "value"
    value {
      tensor {
        dtype: DT_INT32
        tensor_shape {
          dim {
            size: 2
          }
        }
        tensor_content: "(\000\000\000\000\002\000\000"
      }
    }
  }
}
node {
  name: "bidirectional/backward_lstm/kernel/Initializer/random_uniform/min"
  op: "Const"
  attr {
    key: "_class"
    value {
      list {
        s: "loc:@bidirectional/backward_lstm/kernel"
      }
    }
  }
  attr {
    key: "dtype"
    value {
      type: DT_FLOAT
    }
  }
  attr {
    key: "value"
    value {
      tensor {
        dtype: DT_FLOAT
        tensor_shape {
        }
        float_val: -0.10425720363855362
      }
    }
  }
}
node {
  name: "bidirectional/backward_lstm/kernel/Initializer/random_uniform/max"
  op: "Const"
  attr {
    key: "_class"
    value {
      list {
        s: "loc:@bidirectional/backward_lstm/kernel"
      }
    }
  }
  attr {
    key: "dtype"
    value {
      type: DT_FLOAT
    }
  }
  attr {
    key: "value"
    value {
      tensor {
        dtype: DT_FLOAT
        tensor_shape {
        }
        float_val: 0.10425720363855362
      }
    }
  }
}
node {
  name: "bidirectional/backward_lstm/kernel/Initializer/random_uniform/RandomUniform"
  op: "RandomUniform"
  input: "bidirectional/backward_lstm/kernel/Initializer/random_uniform/shape"
  attr {
    key: "T"
    value {
      type: DT_INT32
    }
  }
  attr {
    key: "_class"
    value {
      list {
        s: "loc:@bidirectional/backward_lstm/kernel"
      }
    }
  }
  attr {
    key: "dtype"
    value {
      type: DT_FLOAT
    }
  }
  attr {
    key: "seed"
    value {
      i: 0
    }
  }
  attr {
    key: "seed2"
    value {
      i: 0
    }
  }
}
node {
  name: "bidirectional/backward_lstm/kernel/Initializer/random_uniform/sub"
  op: "Sub"
  input: "bidirectional/backward_lstm/kernel/Initializer/random_uniform/max"
  input: "bidirectional/backward_lstm/kernel/Initializer/random_uniform/min"
  attr {
    key: "T"
    value {
      type: DT_FLOAT
    }
  }
  attr {
    key: "_class"
    value {
      list {
        s: "loc:@bidirectional/backward_lstm/kernel"
      }
    }
  }
}
node {
  name: "bidirectional/backward_lstm/kernel/Initializer/random_uniform/mul"
  op: "Mul"
  input: "bidirectional/backward_lstm/kernel/Initializer/random_uniform/RandomUniform"
  input: "bidirectional/backward_lstm/kernel/Initializer/random_uniform/sub"
  attr {
    key: "T"
    value {
      type: DT_FLOAT
    }
  }
  attr {
    key: "_class"
    value {
      list {
        s: "loc:@bidirectional/backward_lstm/kernel"
      }
    }
  }
}
node {
  name: "bidirectional/backward_lstm/kernel/Initializer/random_uniform"
  op: "Add"
  input: "bidirectional/backward_lstm/kernel/Initializer/random_uniform/mul"
  input: "bidirectional/backward_lstm/kernel/Initializer/random_uniform/min"
  attr {
    key: "T"
    value {
      type: DT_FLOAT
    }
  }
  attr {
    key: "_class"
    value {
      list {
        s: "loc:@bidirectional/backward_lstm/kernel"
      }
    }
  }
}
node {
  name: "bidirectional/backward_lstm/kernel"
  op: "VarHandleOp"
  attr {
    key: "_class"
    value {
      list {
        s: "loc:@bidirectional/backward_lstm/kernel"
      }
    }
  }
  attr {
    key: "container"
    value {
      s: ""
    }
  }
  attr {
    key: "dtype"
    value {
      type: DT_FLOAT
    }
  }
  attr {
    key: "shape"
    value {
      shape {
        dim {
          size: 40
        }
        dim {
          size: 512
        }
      }
    }
  }
  attr {
    key: "shared_name"
    value {
      s: "bidirectional/backward_lstm/kernel"
    }
  }
}
node {
  name: "bidirectional/backward_lstm/kernel/IsInitialized/VarIsInitializedOp"
  op: "VarIsInitializedOp"
  input: "bidirectional/backward_lstm/kernel"
}
node {
  name: "bidirectional/backward_lstm/kernel/Assign"
  op: "AssignVariableOp"
  input: "bidirectional/backward_lstm/kernel"
  input: "bidirectional/backward_lstm/kernel/Initializer/random_uniform"
  attr {
    key: "dtype"
    value {
      type: DT_FLOAT
    }
  }
}
node {
  name: "bidirectional/backward_lstm/kernel/Read/ReadVariableOp"
  op: "ReadVariableOp"
  input: "bidirectional/backward_lstm/kernel"
  attr {
    key: "dtype"
    value {
      type: DT_FLOAT
    }
  }
}
node {
  name: "bidirectional/backward_lstm/recurrent_kernel/Initializer/random_normal/shape"
  op: "Const"
  attr {
    key: "_class"
    value {
      list {
        s: "loc:@bidirectional/backward_lstm/recurrent_kernel"
      }
    }
  }
  attr {
    key: "dtype"
    value {
      type: DT_INT32
    }
  }
  attr {
    key: "value"
    value {
      tensor {
        dtype: DT_INT32
        tensor_shape {
          dim {
            size: 2
          }
        }
        tensor_content: "\000\002\000\000\200\000\000\000"
      }
    }
  }
}
node {
  name: "bidirectional/backward_lstm/recurrent_kernel/Initializer/random_normal/mean"
  op: "Const"
  attr {
    key: "_class"
    value {
      list {
        s: "loc:@bidirectional/backward_lstm/recurrent_kernel"
      }
    }
  }
  attr {
    key: "dtype"
    value {
      type: DT_FLOAT
    }
  }
  attr {
    key: "value"
    value {
      tensor {
        dtype: DT_FLOAT
        tensor_shape {
        }
        float_val: 0.0
      }
    }
  }
}
node {
  name: "bidirectional/backward_lstm/recurrent_kernel/Initializer/random_normal/stddev"
  op: "Const"
  attr {
    key: "_class"
    value {
      list {
        s: "loc:@bidirectional/backward_lstm/recurrent_kernel"
      }
    }
  }
  attr {
    key: "dtype"
    value {
      type: DT_FLOAT
    }
  }
  attr {
    key: "value"
    value {
      tensor {
        dtype: DT_FLOAT
        tensor_shape {
        }
        float_val: 1.0
      }
    }
  }
}
node {
  name: "bidirectional/backward_lstm/recurrent_kernel/Initializer/random_normal/RandomStandardNormal"
  op: "RandomStandardNormal"
  input: "bidirectional/backward_lstm/recurrent_kernel/Initializer/random_normal/shape"
  attr {
    key: "T"
    value {
      type: DT_INT32
    }
  }
  attr {
    key: "_class"
    value {
      list {
        s: "loc:@bidirectional/backward_lstm/recurrent_kernel"
      }
    }
  }
  attr {
    key: "dtype"
    value {
      type: DT_FLOAT
    }
  }
  attr {
    key: "seed"
    value {
      i: 0
    }
  }
  attr {
    key: "seed2"
    value {
      i: 0
    }
  }
}
node {
  name: "bidirectional/backward_lstm/recurrent_kernel/Initializer/random_normal/mul"
  op: "Mul"
  input: "bidirectional/backward_lstm/recurrent_kernel/Initializer/random_normal/RandomStandardNormal"
  input: "bidirectional/backward_lstm/recurrent_kernel/Initializer/random_normal/stddev"
  attr {
    key: "T"
    value {
      type: DT_FLOAT
    }
  }
  attr {
    key: "_class"
    value {
      list {
        s: "loc:@bidirectional/backward_lstm/recurrent_kernel"
      }
    }
  }
}
node {
  name: "bidirectional/backward_lstm/recurrent_kernel/Initializer/random_normal"
  op: "Add"
  input: "bidirectional/backward_lstm/recurrent_kernel/Initializer/random_normal/mul"
  input: "bidirectional/backward_lstm/recurrent_kernel/Initializer/random_normal/mean"
  attr {
    key: "T"
    value {
      type: DT_FLOAT
    }
  }
  attr {
    key: "_class"
    value {
      list {
        s: "loc:@bidirectional/backward_lstm/recurrent_kernel"
      }
    }
  }
}
node {
  name: "bidirectional/backward_lstm/recurrent_kernel/Initializer/Qr"
  op: "Qr"
  input: "bidirectional/backward_lstm/recurrent_kernel/Initializer/random_normal"
  attr {
    key: "T"
    value {
      type: DT_FLOAT
    }
  }
  attr {
    key: "_class"
    value {
      list {
        s: "loc:@bidirectional/backward_lstm/recurrent_kernel"
      }
    }
  }
  attr {
    key: "full_matrices"
    value {
      b: false
    }
  }
}
node {
  name: "bidirectional/backward_lstm/recurrent_kernel/Initializer/DiagPart"
  op: "DiagPart"
  input: "bidirectional/backward_lstm/recurrent_kernel/Initializer/Qr:1"
  attr {
    key: "T"
    value {
      type: DT_FLOAT
    }
  }
  attr {
    key: "_class"
    value {
      list {
        s: "loc:@bidirectional/backward_lstm/recurrent_kernel"
      }
    }
  }
}
node {
  name: "bidirectional/backward_lstm/recurrent_kernel/Initializer/Sign"
  op: "Sign"
  input: "bidirectional/backward_lstm/recurrent_kernel/Initializer/DiagPart"
  attr {
    key: "T"
    value {
      type: DT_FLOAT
    }
  }
  attr {
    key: "_class"
    value {
      list {
        s: "loc:@bidirectional/backward_lstm/recurrent_kernel"
      }
    }
  }
}
node {
  name: "bidirectional/backward_lstm/recurrent_kernel/Initializer/mul"
  op: "Mul"
  input: "bidirectional/backward_lstm/recurrent_kernel/Initializer/Qr"
  input: "bidirectional/backward_lstm/recurrent_kernel/Initializer/Sign"
  attr {
    key: "T"
    value {
      type: DT_FLOAT
    }
  }
  attr {
    key: "_class"
    value {
      list {
        s: "loc:@bidirectional/backward_lstm/recurrent_kernel"
      }
    }
  }
}
node {
  name: "bidirectional/backward_lstm/recurrent_kernel/Initializer/matrix_transpose/transpose/perm"
  op: "Const"
  attr {
    key: "_class"
    value {
      list {
        s: "loc:@bidirectional/backward_lstm/recurrent_kernel"
      }
    }
  }
  attr {
    key: "dtype"
    value {
      type: DT_INT32
    }
  }
  attr {
    key: "value"
    value {
      tensor {
        dtype: DT_INT32
        tensor_shape {
          dim {
            size: 2
          }
        }
        tensor_content: "\001\000\000\000\000\000\000\000"
      }
    }
  }
}
node {
  name: "bidirectional/backward_lstm/recurrent_kernel/Initializer/matrix_transpose/transpose"
  op: "Transpose"
  input: "bidirectional/backward_lstm/recurrent_kernel/Initializer/mul"
  input: "bidirectional/backward_lstm/recurrent_kernel/Initializer/matrix_transpose/transpose/perm"
  attr {
    key: "T"
    value {
      type: DT_FLOAT
    }
  }
  attr {
    key: "Tperm"
    value {
      type: DT_INT32
    }
  }
  attr {
    key: "_class"
    value {
      list {
        s: "loc:@bidirectional/backward_lstm/recurrent_kernel"
      }
    }
  }
}
node {
  name: "bidirectional/backward_lstm/recurrent_kernel/Initializer/Reshape/shape"
  op: "Const"
  attr {
    key: "_class"
    value {
      list {
        s: "loc:@bidirectional/backward_lstm/recurrent_kernel"
      }
    }
  }
  attr {
    key: "dtype"
    value {
      type: DT_INT32
    }
  }
  attr {
    key: "value"
    value {
      tensor {
        dtype: DT_INT32
        tensor_shape {
          dim {
            size: 2
          }
        }
        tensor_content: "\200\000\000\000\000\002\000\000"
      }
    }
  }
}
node {
  name: "bidirectional/backward_lstm/recurrent_kernel/Initializer/Reshape"
  op: "Reshape"
  input: "bidirectional/backward_lstm/recurrent_kernel/Initializer/matrix_transpose/transpose"
  input: "bidirectional/backward_lstm/recurrent_kernel/Initializer/Reshape/shape"
  attr {
    key: "T"
    value {
      type: DT_FLOAT
    }
  }
  attr {
    key: "Tshape"
    value {
      type: DT_INT32
    }
  }
  attr {
    key: "_class"
    value {
      list {
        s: "loc:@bidirectional/backward_lstm/recurrent_kernel"
      }
    }
  }
}
node {
  name: "bidirectional/backward_lstm/recurrent_kernel/Initializer/mul_1/x"
  op: "Const"
  attr {
    key: "_class"
    value {
      list {
        s: "loc:@bidirectional/backward_lstm/recurrent_kernel"
      }
    }
  }
  attr {
    key: "dtype"
    value {
      type: DT_FLOAT
    }
  }
  attr {
    key: "value"
    value {
      tensor {
        dtype: DT_FLOAT
        tensor_shape {
        }
        float_val: 1.0
      }
    }
  }
}
node {
  name: "bidirectional/backward_lstm/recurrent_kernel/Initializer/mul_1"
  op: "Mul"
  input: "bidirectional/backward_lstm/recurrent_kernel/Initializer/mul_1/x"
  input: "bidirectional/backward_lstm/recurrent_kernel/Initializer/Reshape"
  attr {
    key: "T"
    value {
      type: DT_FLOAT
    }
  }
  attr {
    key: "_class"
    value {
      list {
        s: "loc:@bidirectional/backward_lstm/recurrent_kernel"
      }
    }
  }
}
node {
  name: "bidirectional/backward_lstm/recurrent_kernel"
  op: "VarHandleOp"
  attr {
    key: "_class"
    value {
      list {
        s: "loc:@bidirectional/backward_lstm/recurrent_kernel"
      }
    }
  }
  attr {
    key: "container"
    value {
      s: ""
    }
  }
  attr {
    key: "dtype"
    value {
      type: DT_FLOAT
    }
  }
  attr {
    key: "shape"
    value {
      shape {
        dim {
          size: 128
        }
        dim {
          size: 512
        }
      }
    }
  }
  attr {
    key: "shared_name"
    value {
      s: "bidirectional/backward_lstm/recurrent_kernel"
    }
  }
}
node {
  name: "bidirectional/backward_lstm/recurrent_kernel/IsInitialized/VarIsInitializedOp"
  op: "VarIsInitializedOp"
  input: "bidirectional/backward_lstm/recurrent_kernel"
}
node {
  name: "bidirectional/backward_lstm/recurrent_kernel/Assign"
  op: "AssignVariableOp"
  input: "bidirectional/backward_lstm/recurrent_kernel"
  input: "bidirectional/backward_lstm/recurrent_kernel/Initializer/mul_1"
  attr {
    key: "dtype"
    value {
      type: DT_FLOAT
    }
  }
}
node {
  name: "bidirectional/backward_lstm/recurrent_kernel/Read/ReadVariableOp"
  op: "ReadVariableOp"
  input: "bidirectional/backward_lstm/recurrent_kernel"
  attr {
    key: "dtype"
    value {
      type: DT_FLOAT
    }
  }
}
node {
  name: "bidirectional/backward_lstm/bias/Initializer/zeros"
  op: "Const"
  attr {
    key: "_class"
    value {
      list {
        s: "loc:@bidirectional/backward_lstm/bias"
      }
    }
  }
  attr {
    key: "dtype"
    value {
      type: DT_FLOAT
    }
  }
  attr {
    key: "value"
    value {
      tensor {
        dtype: DT_FLOAT
        tensor_shape {
          dim {
            size: 128
          }
        }
        float_val: 0.0
      }
    }
  }
}
node {
  name: "bidirectional/backward_lstm/bias/Initializer/ones"
  op: "Const"
  attr {
    key: "_class"
    value {
      list {
        s: "loc:@bidirectional/backward_lstm/bias"
      }
    }
  }
  attr {
    key: "dtype"
    value {
      type: DT_FLOAT
    }
  }
  attr {
    key: "value"
    value {
      tensor {
        dtype: DT_FLOAT
        tensor_shape {
          dim {
            size: 128
          }
        }
        float_val: 1.0
      }
    }
  }
}
node {
  name: "bidirectional/backward_lstm/bias/Initializer/zeros_1"
  op: "Const"
  attr {
    key: "_class"
    value {
      list {
        s: "loc:@bidirectional/backward_lstm/bias"
      }
    }
  }
  attr {
    key: "dtype"
    value {
      type: DT_FLOAT
    }
  }
  attr {
    key: "value"
    value {
      tensor {
        dtype: DT_FLOAT
        tensor_shape {
          dim {
            size: 256
          }
        }
        float_val: 0.0
      }
    }
  }
}
node {
  name: "bidirectional/backward_lstm/bias/Initializer/concat/axis"
  op: "Const"
  attr {
    key: "_class"
    value {
      list {
        s: "loc:@bidirectional/backward_lstm/bias"
      }
    }
  }
  attr {
    key: "dtype"
    value {
      type: DT_INT32
    }
  }
  attr {
    key: "value"
    value {
      tensor {
        dtype: DT_INT32
        tensor_shape {
        }
        int_val: 0
      }
    }
  }
}
node {
  name: "bidirectional/backward_lstm/bias/Initializer/concat"
  op: "ConcatV2"
  input: "bidirectional/backward_lstm/bias/Initializer/zeros"
  input: "bidirectional/backward_lstm/bias/Initializer/ones"
  input: "bidirectional/backward_lstm/bias/Initializer/zeros_1"
  input: "bidirectional/backward_lstm/bias/Initializer/concat/axis"
  attr {
    key: "N"
    value {
      i: 3
    }
  }
  attr {
    key: "T"
    value {
      type: DT_FLOAT
    }
  }
  attr {
    key: "Tidx"
    value {
      type: DT_INT32
    }
  }
  attr {
    key: "_class"
    value {
      list {
        s: "loc:@bidirectional/backward_lstm/bias"
      }
    }
  }
}
node {
  name: "bidirectional/backward_lstm/bias"
  op: "VarHandleOp"
  attr {
    key: "_class"
    value {
      list {
        s: "loc:@bidirectional/backward_lstm/bias"
      }
    }
  }
  attr {
    key: "container"
    value {
      s: ""
    }
  }
  attr {
    key: "dtype"
    value {
      type: DT_FLOAT
    }
  }
  attr {
    key: "shape"
    value {
      shape {
        dim {
          size: 512
        }
      }
    }
  }
  attr {
    key: "shared_name"
    value {
      s: "bidirectional/backward_lstm/bias"
    }
  }
}
node {
  name: "bidirectional/backward_lstm/bias/IsInitialized/VarIsInitializedOp"
  op: "VarIsInitializedOp"
  input: "bidirectional/backward_lstm/bias"
}
node {
  name: "bidirectional/backward_lstm/bias/Assign"
  op: "AssignVariableOp"
  input: "bidirectional/backward_lstm/bias"
  input: "bidirectional/backward_lstm/bias/Initializer/concat"
  attr {
    key: "dtype"
    value {
      type: DT_FLOAT
    }
  }
}
node {
  name: "bidirectional/backward_lstm/bias/Read/ReadVariableOp"
  op: "ReadVariableOp"
  input: "bidirectional/backward_lstm/bias"
  attr {
    key: "dtype"
    value {
      type: DT_FLOAT
    }
  }
}
node {
  name: "bidirectional/forward_lstm_1/Shape"
  op: "Shape"
  input: "input_1"
  attr {
    key: "T"
    value {
      type: DT_FLOAT
    }
  }
  attr {
    key: "out_type"
    value {
      type: DT_INT32
    }
  }
}
node {
  name: "bidirectional/forward_lstm_1/strided_slice/stack"
  op: "Const"
  attr {
    key: "dtype"
    value {
      type: DT_INT32
    }
  }
  attr {
    key: "value"
    value {
      tensor {
        dtype: DT_INT32
        tensor_shape {
          dim {
            size: 1
          }
        }
        int_val: 0
      }
    }
  }
}
node {
  name: "bidirectional/forward_lstm_1/strided_slice/stack_1"
  op: "Const"
  attr {
    key: "dtype"
    value {
      type: DT_INT32
    }
  }
  attr {
    key: "value"
    value {
      tensor {
        dtype: DT_INT32
        tensor_shape {
          dim {
            size: 1
          }
        }
        int_val: 1
      }
    }
  }
}
node {
  name: "bidirectional/forward_lstm_1/strided_slice/stack_2"
  op: "Const"
  attr {
    key: "dtype"
    value {
      type: DT_INT32
    }
  }
  attr {
    key: "value"
    value {
      tensor {
        dtype: DT_INT32
        tensor_shape {
          dim {
            size: 1
          }
        }
        int_val: 1
      }
    }
  }
}
node {
  name: "bidirectional/forward_lstm_1/strided_slice"
  op: "StridedSlice"
  input: "bidirectional/forward_lstm_1/Shape"
  input: "bidirectional/forward_lstm_1/strided_slice/stack"
  input: "bidirectional/forward_lstm_1/strided_slice/stack_1"
  input: "bidirectional/forward_lstm_1/strided_slice/stack_2"
  attr {
    key: "Index"
    value {
      type: DT_INT32
    }
  }
  attr {
    key: "T"
    value {
      type: DT_INT32
    }
  }
  attr {
    key: "begin_mask"
    value {
      i: 0
    }
  }
  attr {
    key: "ellipsis_mask"
    value {
      i: 0
    }
  }
  attr {
    key: "end_mask"
    value {
      i: 0
    }
  }
  attr {
    key: "new_axis_mask"
    value {
      i: 0
    }
  }
  attr {
    key: "shrink_axis_mask"
    value {
      i: 1
    }
  }
}
node {
  name: "bidirectional/forward_lstm_1/zeros/mul/y"
  op: "Const"
  attr {
    key: "dtype"
    value {
      type: DT_INT32
    }
  }
  attr {
    key: "value"
    value {
      tensor {
        dtype: DT_INT32
        tensor_shape {
        }
        int_val: 128
      }
    }
  }
}
node {
  name: "bidirectional/forward_lstm_1/zeros/mul"
  op: "Mul"
  input: "bidirectional/forward_lstm_1/strided_slice"
  input: "bidirectional/forward_lstm_1/zeros/mul/y"
  attr {
    key: "T"
    value {
      type: DT_INT32
    }
  }
}
node {
  name: "bidirectional/forward_lstm_1/zeros/Less/y"
  op: "Const"
  attr {
    key: "dtype"
    value {
      type: DT_INT32
    }
  }
  attr {
    key: "value"
    value {
      tensor {
        dtype: DT_INT32
        tensor_shape {
        }
        int_val: 1000
      }
    }
  }
}
node {
  name: "bidirectional/forward_lstm_1/zeros/Less"
  op: "Less"
  input: "bidirectional/forward_lstm_1/zeros/mul"
  input: "bidirectional/forward_lstm_1/zeros/Less/y"
  attr {
    key: "T"
    value {
      type: DT_INT32
    }
  }
}
node {
  name: "bidirectional/forward_lstm_1/zeros/packed/1"
  op: "Const"
  attr {
    key: "dtype"
    value {
      type: DT_INT32
    }
  }
  attr {
    key: "value"
    value {
      tensor {
        dtype: DT_INT32
        tensor_shape {
        }
        int_val: 128
      }
    }
  }
}
node {
  name: "bidirectional/forward_lstm_1/zeros/packed"
  op: "Pack"
  input: "bidirectional/forward_lstm_1/strided_slice"
  input: "bidirectional/forward_lstm_1/zeros/packed/1"
  attr {
    key: "N"
    value {
      i: 2
    }
  }
  attr {
    key: "T"
    value {
      type: DT_INT32
    }
  }
  attr {
    key: "axis"
    value {
      i: 0
    }
  }
}
node {
  name: "bidirectional/forward_lstm_1/zeros/Const"
  op: "Const"
  attr {
    key: "dtype"
    value {
      type: DT_FLOAT
    }
  }
  attr {
    key: "value"
    value {
      tensor {
        dtype: DT_FLOAT
        tensor_shape {
        }
        float_val: 0.0
      }
    }
  }
}
node {
  name: "bidirectional/forward_lstm_1/zeros"
  op: "Fill"
  input: "bidirectional/forward_lstm_1/zeros/packed"
  input: "bidirectional/forward_lstm_1/zeros/Const"
  attr {
    key: "T"
    value {
      type: DT_FLOAT
    }
  }
  attr {
    key: "index_type"
    value {
      type: DT_INT32
    }
  }
}
node {
  name: "bidirectional/forward_lstm_1/zeros_1/mul/y"
  op: "Const"
  attr {
    key: "dtype"
    value {
      type: DT_INT32
    }
  }
  attr {
    key: "value"
    value {
      tensor {
        dtype: DT_INT32
        tensor_shape {
        }
        int_val: 128
      }
    }
  }
}
node {
  name: "bidirectional/forward_lstm_1/zeros_1/mul"
  op: "Mul"
  input: "bidirectional/forward_lstm_1/strided_slice"
  input: "bidirectional/forward_lstm_1/zeros_1/mul/y"
  attr {
    key: "T"
    value {
      type: DT_INT32
    }
  }
}
node {
  name: "bidirectional/forward_lstm_1/zeros_1/Less/y"
  op: "Const"
  attr {
    key: "dtype"
    value {
      type: DT_INT32
    }
  }
  attr {
    key: "value"
    value {
      tensor {
        dtype: DT_INT32
        tensor_shape {
        }
        int_val: 1000
      }
    }
  }
}
node {
  name: "bidirectional/forward_lstm_1/zeros_1/Less"
  op: "Less"
  input: "bidirectional/forward_lstm_1/zeros_1/mul"
  input: "bidirectional/forward_lstm_1/zeros_1/Less/y"
  attr {
    key: "T"
    value {
      type: DT_INT32
    }
  }
}
node {
  name: "bidirectional/forward_lstm_1/zeros_1/packed/1"
  op: "Const"
  attr {
    key: "dtype"
    value {
      type: DT_INT32
    }
  }
  attr {
    key: "value"
    value {
      tensor {
        dtype: DT_INT32
        tensor_shape {
        }
        int_val: 128
      }
    }
  }
}
node {
  name: "bidirectional/forward_lstm_1/zeros_1/packed"
  op: "Pack"
  input: "bidirectional/forward_lstm_1/strided_slice"
  input: "bidirectional/forward_lstm_1/zeros_1/packed/1"
  attr {
    key: "N"
    value {
      i: 2
    }
  }
  attr {
    key: "T"
    value {
      type: DT_INT32
    }
  }
  attr {
    key: "axis"
    value {
      i: 0
    }
  }
}
node {
  name: "bidirectional/forward_lstm_1/zeros_1/Const"
  op: "Const"
  attr {
    key: "dtype"
    value {
      type: DT_FLOAT
    }
  }
  attr {
    key: "value"
    value {
      tensor {
        dtype: DT_FLOAT
        tensor_shape {
        }
        float_val: 0.0
      }
    }
  }
}
node {
  name: "bidirectional/forward_lstm_1/zeros_1"
  op: "Fill"
  input: "bidirectional/forward_lstm_1/zeros_1/packed"
  input: "bidirectional/forward_lstm_1/zeros_1/Const"
  attr {
    key: "T"
    value {
      type: DT_FLOAT
    }
  }
  attr {
    key: "index_type"
    value {
      type: DT_INT32
    }
  }
}
node {
  name: "bidirectional/forward_lstm_1/transpose/perm"
  op: "Const"
  attr {
    key: "dtype"
    value {
      type: DT_INT32
    }
  }
  attr {
    key: "value"
    value {
      tensor {
        dtype: DT_INT32
        tensor_shape {
          dim {
            size: 3
          }
        }
        tensor_content: "\001\000\000\000\000\000\000\000\002\000\000\000"
      }
    }
  }
}
node {
  name: "bidirectional/forward_lstm_1/transpose"
  op: "Transpose"
  input: "input_1"
  input: "bidirectional/forward_lstm_1/transpose/perm"
  attr {
    key: "T"
    value {
      type: DT_FLOAT
    }
  }
  attr {
    key: "Tperm"
    value {
      type: DT_INT32
    }
  }
}
node {
  name: "bidirectional/forward_lstm_1/Shape_1"
  op: "Shape"
  input: "bidirectional/forward_lstm_1/transpose"
  attr {
    key: "T"
    value {
      type: DT_FLOAT
    }
  }
  attr {
    key: "out_type"
    value {
      type: DT_INT32
    }
  }
}
node {
  name: "bidirectional/forward_lstm_1/strided_slice_1/stack"
  op: "Const"
  attr {
    key: "dtype"
    value {
      type: DT_INT32
    }
  }
  attr {
    key: "value"
    value {
      tensor {
        dtype: DT_INT32
        tensor_shape {
          dim {
            size: 1
          }
        }
        int_val: 0
      }
    }
  }
}
node {
  name: "bidirectional/forward_lstm_1/strided_slice_1/stack_1"
  op: "Const"
  attr {
    key: "dtype"
    value {
      type: DT_INT32
    }
  }
  attr {
    key: "value"
    value {
      tensor {
        dtype: DT_INT32
        tensor_shape {
          dim {
            size: 1
          }
        }
        int_val: 1
      }
    }
  }
}
node {
  name: "bidirectional/forward_lstm_1/strided_slice_1/stack_2"
  op: "Const"
  attr {
    key: "dtype"
    value {
      type: DT_INT32
    }
  }
  attr {
    key: "value"
    value {
      tensor {
        dtype: DT_INT32
        tensor_shape {
          dim {
            size: 1
          }
        }
        int_val: 1
      }
    }
  }
}
node {
  name: "bidirectional/forward_lstm_1/strided_slice_1"
  op: "StridedSlice"
  input: "bidirectional/forward_lstm_1/Shape_1"
  input: "bidirectional/forward_lstm_1/strided_slice_1/stack"
  input: "bidirectional/forward_lstm_1/strided_slice_1/stack_1"
  input: "bidirectional/forward_lstm_1/strided_slice_1/stack_2"
  attr {
    key: "Index"
    value {
      type: DT_INT32
    }
  }
  attr {
    key: "T"
    value {
      type: DT_INT32
    }
  }
  attr {
    key: "begin_mask"
    value {
      i: 0
    }
  }
  attr {
    key: "ellipsis_mask"
    value {
      i: 0
    }
  }
  attr {
    key: "end_mask"
    value {
      i: 0
    }
  }
  attr {
    key: "new_axis_mask"
    value {
      i: 0
    }
  }
  attr {
    key: "shrink_axis_mask"
    value {
      i: 1
    }
  }
}
node {
  name: "bidirectional/forward_lstm_1/TensorArray"
  op: "TensorArrayV3"
  input: "bidirectional/forward_lstm_1/strided_slice_1"
  attr {
    key: "clear_after_read"
    value {
      b: true
    }
  }
  attr {
    key: "dtype"
    value {
      type: DT_FLOAT
    }
  }
  attr {
    key: "dynamic_size"
    value {
      b: false
    }
  }
  attr {
    key: "element_shape"
    value {
      shape {
        unknown_rank: true
      }
    }
  }
  attr {
    key: "identical_element_shapes"
    value {
      b: true
    }
  }
  attr {
    key: "tensor_array_name"
    value {
      s: "input_ta_0"
    }
  }
}
node {
  name: "bidirectional/forward_lstm_1/TensorArrayUnstack/Shape"
  op: "Shape"
  input: "bidirectional/forward_lstm_1/transpose"
  attr {
    key: "T"
    value {
      type: DT_FLOAT
    }
  }
  attr {
    key: "out_type"
    value {
      type: DT_INT32
    }
  }
}
node {
  name: "bidirectional/forward_lstm_1/TensorArrayUnstack/strided_slice/stack"
  op: "Const"
  attr {
    key: "dtype"
    value {
      type: DT_INT32
    }
  }
  attr {
    key: "value"
    value {
      tensor {
        dtype: DT_INT32
        tensor_shape {
          dim {
            size: 1
          }
        }
        int_val: 0
      }
    }
  }
}
node {
  name: "bidirectional/forward_lstm_1/TensorArrayUnstack/strided_slice/stack_1"
  op: "Const"
  attr {
    key: "dtype"
    value {
      type: DT_INT32
    }
  }
  attr {
    key: "value"
    value {
      tensor {
        dtype: DT_INT32
        tensor_shape {
          dim {
            size: 1
          }
        }
        int_val: 1
      }
    }
  }
}
node {
  name: "bidirectional/forward_lstm_1/TensorArrayUnstack/strided_slice/stack_2"
  op: "Const"
  attr {
    key: "dtype"
    value {
      type: DT_INT32
    }
  }
  attr {
    key: "value"
    value {
      tensor {
        dtype: DT_INT32
        tensor_shape {
          dim {
            size: 1
          }
        }
        int_val: 1
      }
    }
  }
}
node {
  name: "bidirectional/forward_lstm_1/TensorArrayUnstack/strided_slice"
  op: "StridedSlice"
  input: "bidirectional/forward_lstm_1/TensorArrayUnstack/Shape"
  input: "bidirectional/forward_lstm_1/TensorArrayUnstack/strided_slice/stack"
  input: "bidirectional/forward_lstm_1/TensorArrayUnstack/strided_slice/stack_1"
  input: "bidirectional/forward_lstm_1/TensorArrayUnstack/strided_slice/stack_2"
  attr {
    key: "Index"
    value {
      type: DT_INT32
    }
  }
  attr {
    key: "T"
    value {
      type: DT_INT32
    }
  }
  attr {
    key: "begin_mask"
    value {
      i: 0
    }
  }
  attr {
    key: "ellipsis_mask"
    value {
      i: 0
    }
  }
  attr {
    key: "end_mask"
    value {
      i: 0
    }
  }
  attr {
    key: "new_axis_mask"
    value {
      i: 0
    }
  }
  attr {
    key: "shrink_axis_mask"
    value {
      i: 1
    }
  }
}
node {
  name: "bidirectional/forward_lstm_1/TensorArrayUnstack/range/start"
  op: "Const"
  attr {
    key: "dtype"
    value {
      type: DT_INT32
    }
  }
  attr {
    key: "value"
    value {
      tensor {
        dtype: DT_INT32
        tensor_shape {
        }
        int_val: 0
      }
    }
  }
}
node {
  name: "bidirectional/forward_lstm_1/TensorArrayUnstack/range/delta"
  op: "Const"
  attr {
    key: "dtype"
    value {
      type: DT_INT32
    }
  }
  attr {
    key: "value"
    value {
      tensor {
        dtype: DT_INT32
        tensor_shape {
        }
        int_val: 1
      }
    }
  }
}
node {
  name: "bidirectional/forward_lstm_1/TensorArrayUnstack/range"
  op: "Range"
  input: "bidirectional/forward_lstm_1/TensorArrayUnstack/range/start"
  input: "bidirectional/forward_lstm_1/TensorArrayUnstack/strided_slice"
  input: "bidirectional/forward_lstm_1/TensorArrayUnstack/range/delta"
  attr {
    key: "Tidx"
    value {
      type: DT_INT32
    }
  }
}
node {
  name: "bidirectional/forward_lstm_1/TensorArrayUnstack/TensorArrayScatter/TensorArrayScatterV3"
  op: "TensorArrayScatterV3"
  input: "bidirectional/forward_lstm_1/TensorArray"
  input: "bidirectional/forward_lstm_1/TensorArrayUnstack/range"
  input: "bidirectional/forward_lstm_1/transpose"
  input: "bidirectional/forward_lstm_1/TensorArray:1"
  attr {
    key: "T"
    value {
      type: DT_FLOAT
    }
  }
  attr {
    key: "_class"
    value {
      list {
        s: "loc:@bidirectional/forward_lstm_1/transpose"
      }
    }
  }
}
node {
  name: "bidirectional/forward_lstm_1/strided_slice_2/stack"
  op: "Const"
  attr {
    key: "dtype"
    value {
      type: DT_INT32
    }
  }
  attr {
    key: "value"
    value {
      tensor {
        dtype: DT_INT32
        tensor_shape {
          dim {
            size: 1
          }
        }
        int_val: 0
      }
    }
  }
}
node {
  name: "bidirectional/forward_lstm_1/strided_slice_2/stack_1"
  op: "Const"
  attr {
    key: "dtype"
    value {
      type: DT_INT32
    }
  }
  attr {
    key: "value"
    value {
      tensor {
        dtype: DT_INT32
        tensor_shape {
          dim {
            size: 1
          }
        }
        int_val: 1
      }
    }
  }
}
node {
  name: "bidirectional/forward_lstm_1/strided_slice_2/stack_2"
  op: "Const"
  attr {
    key: "dtype"
    value {
      type: DT_INT32
    }
  }
  attr {
    key: "value"
    value {
      tensor {
        dtype: DT_INT32
        tensor_shape {
          dim {
            size: 1
          }
        }
        int_val: 1
      }
    }
  }
}
node {
  name: "bidirectional/forward_lstm_1/strided_slice_2"
  op: "StridedSlice"
  input: "bidirectional/forward_lstm_1/transpose"
  input: "bidirectional/forward_lstm_1/strided_slice_2/stack"
  input: "bidirectional/forward_lstm_1/strided_slice_2/stack_1"
  input: "bidirectional/forward_lstm_1/strided_slice_2/stack_2"
  attr {
    key: "Index"
    value {
      type: DT_INT32
    }
  }
  attr {
    key: "T"
    value {
      type: DT_FLOAT
    }
  }
  attr {
    key: "begin_mask"
    value {
      i: 0
    }
  }
  attr {
    key: "ellipsis_mask"
    value {
      i: 0
    }
  }
  attr {
    key: "end_mask"
    value {
      i: 0
    }
  }
  attr {
    key: "new_axis_mask"
    value {
      i: 0
    }
  }
  attr {
    key: "shrink_axis_mask"
    value {
      i: 1
    }
  }
}
node {
  name: "bidirectional/forward_lstm_1/MatMul/ReadVariableOp"
  op: "ReadVariableOp"
  input: "bidirectional/forward_lstm/kernel"
  attr {
    key: "dtype"
    value {
      type: DT_FLOAT
    }
  }
}
node {
  name: "bidirectional/forward_lstm_1/MatMul"
  op: "MatMul"
  input: "bidirectional/forward_lstm_1/strided_slice_2"
  input: "bidirectional/forward_lstm_1/MatMul/ReadVariableOp"
  attr {
    key: "T"
    value {
      type: DT_FLOAT
    }
  }
  attr {
    key: "transpose_a"
    value {
      b: false
    }
  }
  attr {
    key: "transpose_b"
    value {
      b: false
    }
  }
}
node {
  name: "bidirectional/forward_lstm_1/MatMul_1/ReadVariableOp"
  op: "ReadVariableOp"
  input: "bidirectional/forward_lstm/recurrent_kernel"
  attr {
    key: "dtype"
    value {
      type: DT_FLOAT
    }
  }
}
node {
  name: "bidirectional/forward_lstm_1/MatMul_1"
  op: "MatMul"
  input: "bidirectional/forward_lstm_1/zeros"
  input: "bidirectional/forward_lstm_1/MatMul_1/ReadVariableOp"
  attr {
    key: "T"
    value {
      type: DT_FLOAT
    }
  }
  attr {
    key: "transpose_a"
    value {
      b: false
    }
  }
  attr {
    key: "transpose_b"
    value {
      b: false
    }
  }
}
node {
  name: "bidirectional/forward_lstm_1/add"
  op: "AddV2"
  input: "bidirectional/forward_lstm_1/MatMul"
  input: "bidirectional/forward_lstm_1/MatMul_1"
  attr {
    key: "T"
    value {
      type: DT_FLOAT
    }
  }
}
node {
  name: "bidirectional/forward_lstm_1/BiasAdd/ReadVariableOp"
  op: "ReadVariableOp"
  input: "bidirectional/forward_lstm/bias"
  attr {
    key: "dtype"
    value {
      type: DT_FLOAT
    }
  }
}
node {
  name: "bidirectional/forward_lstm_1/BiasAdd"
  op: "BiasAdd"
  input: "bidirectional/forward_lstm_1/add"
  input: "bidirectional/forward_lstm_1/BiasAdd/ReadVariableOp"
  attr {
    key: "T"
    value {
      type: DT_FLOAT
    }
  }
  attr {
    key: "data_format"
    value {
      s: "NHWC"
    }
  }
}
node {
  name: "bidirectional/forward_lstm_1/Const"
  op: "Const"
  attr {
    key: "dtype"
    value {
      type: DT_INT32
    }
  }
  attr {
    key: "value"
    value {
      tensor {
        dtype: DT_INT32
        tensor_shape {
        }
        int_val: 4
      }
    }
  }
}
node {
  name: "bidirectional/forward_lstm_1/split/split_dim"
  op: "Const"
  attr {
    key: "dtype"
    value {
      type: DT_INT32
    }
  }
  attr {
    key: "value"
    value {
      tensor {
        dtype: DT_INT32
        tensor_shape {
        }
        int_val: 1
      }
    }
  }
}
node {
  name: "bidirectional/forward_lstm_1/split"
  op: "Split"
  input: "bidirectional/forward_lstm_1/split/split_dim"
  input: "bidirectional/forward_lstm_1/BiasAdd"
  attr {
    key: "T"
    value {
      type: DT_FLOAT
    }
  }
  attr {
    key: "num_split"
    value {
      i: 4
    }
  }
}
node {
  name: "bidirectional/forward_lstm_1/Sigmoid"
  op: "Sigmoid"
  input: "bidirectional/forward_lstm_1/split"
  attr {
    key: "T"
    value {
      type: DT_FLOAT
    }
  }
}
node {
  name: "bidirectional/forward_lstm_1/Sigmoid_1"
  op: "Sigmoid"
  input: "bidirectional/forward_lstm_1/split:1"
  attr {
    key: "T"
    value {
      type: DT_FLOAT
    }
  }
}
node {
  name: "bidirectional/forward_lstm_1/mul"
  op: "Mul"
  input: "bidirectional/forward_lstm_1/Sigmoid_1"
  input: "bidirectional/forward_lstm_1/zeros_1"
  attr {
    key: "T"
    value {
      type: DT_FLOAT
    }
  }
}
node {
  name: "bidirectional/forward_lstm_1/Tanh"
  op: "Tanh"
  input: "bidirectional/forward_lstm_1/split:2"
  attr {
    key: "T"
    value {
      type: DT_FLOAT
    }
  }
}
node {
  name: "bidirectional/forward_lstm_1/mul_1"
  op: "Mul"
  input: "bidirectional/forward_lstm_1/Sigmoid"
  input: "bidirectional/forward_lstm_1/Tanh"
  attr {
    key: "T"
    value {
      type: DT_FLOAT
    }
  }
}
node {
  name: "bidirectional/forward_lstm_1/add_1"
  op: "AddV2"
  input: "bidirectional/forward_lstm_1/mul"
  input: "bidirectional/forward_lstm_1/mul_1"
  attr {
    key: "T"
    value {
      type: DT_FLOAT
    }
  }
}
node {
  name: "bidirectional/forward_lstm_1/Sigmoid_2"
  op: "Sigmoid"
  input: "bidirectional/forward_lstm_1/split:3"
  attr {
    key: "T"
    value {
      type: DT_FLOAT
    }
  }
}
node {
  name: "bidirectional/forward_lstm_1/Tanh_1"
  op: "Tanh"
  input: "bidirectional/forward_lstm_1/add_1"
  attr {
    key: "T"
    value {
      type: DT_FLOAT
    }
  }
}
node {
  name: "bidirectional/forward_lstm_1/mul_2"
  op: "Mul"
  input: "bidirectional/forward_lstm_1/Sigmoid_2"
  input: "bidirectional/forward_lstm_1/Tanh_1"
  attr {
    key: "T"
    value {
      type: DT_FLOAT
    }
  }
}
node {
  name: "bidirectional/forward_lstm_1/TensorArray_1"
  op: "TensorArrayV3"
  input: "bidirectional/forward_lstm_1/strided_slice_1"
  attr {
    key: "clear_after_read"
    value {
      b: true
    }
  }
  attr {
    key: "dtype"
    value {
      type: DT_FLOAT
    }
  }
  attr {
    key: "dynamic_size"
    value {
      b: false
    }
  }
  attr {
    key: "element_shape"
    value {
      shape {
        dim {
          size: -1
        }
        dim {
          size: 128
        }
      }
    }
  }
  attr {
    key: "identical_element_shapes"
    value {
      b: true
    }
  }
  attr {
    key: "tensor_array_name"
    value {
      s: "output_ta_0"
    }
  }
}
node {
  name: "bidirectional/forward_lstm_1/time"
  op: "Const"
  attr {
    key: "dtype"
    value {
      type: DT_INT32
    }
  }
  attr {
    key: "value"
    value {
      tensor {
        dtype: DT_INT32
        tensor_shape {
        }
        int_val: 0
      }
    }
  }
}
node {
  name: "bidirectional/forward_lstm_1/while/Enter"
  op: "Enter"
  input: "bidirectional/forward_lstm_1/time"
  attr {
    key: "T"
    value {
      type: DT_INT32
    }
  }
  attr {
    key: "frame_name"
    value {
      s: "bidirectional/forward_lstm_1/while/while_context"
    }
  }
  attr {
    key: "is_constant"
    value {
      b: false
    }
  }
  attr {
    key: "parallel_iterations"
    value {
      i: 32
    }
  }
}
node {
  name: "bidirectional/forward_lstm_1/while/Enter_1"
  op: "Enter"
  input: "bidirectional/forward_lstm_1/TensorArray_1:1"
  attr {
    key: "T"
    value {
      type: DT_FLOAT
    }
  }
  attr {
    key: "frame_name"
    value {
      s: "bidirectional/forward_lstm_1/while/while_context"
    }
  }
  attr {
    key: "is_constant"
    value {
      b: false
    }
  }
  attr {
    key: "parallel_iterations"
    value {
      i: 32
    }
  }
}
node {
  name: "bidirectional/forward_lstm_1/while/Enter_2"
  op: "Enter"
  input: "bidirectional/forward_lstm_1/zeros"
  attr {
    key: "T"
    value {
      type: DT_FLOAT
    }
  }
  attr {
    key: "frame_name"
    value {
      s: "bidirectional/forward_lstm_1/while/while_context"
    }
  }
  attr {
    key: "is_constant"
    value {
      b: false
    }
  }
  attr {
    key: "parallel_iterations"
    value {
      i: 32
    }
  }
}
node {
  name: "bidirectional/forward_lstm_1/while/Enter_3"
  op: "Enter"
  input: "bidirectional/forward_lstm_1/zeros_1"
  attr {
    key: "T"
    value {
      type: DT_FLOAT
    }
  }
  attr {
    key: "frame_name"
    value {
      s: "bidirectional/forward_lstm_1/while/while_context"
    }
  }
  attr {
    key: "is_constant"
    value {
      b: false
    }
  }
  attr {
    key: "parallel_iterations"
    value {
      i: 32
    }
  }
}
node {
  name: "bidirectional/forward_lstm_1/while/Merge"
  op: "Merge"
  input: "bidirectional/forward_lstm_1/while/Enter"
  input: "bidirectional/forward_lstm_1/while/NextIteration"
  attr {
    key: "N"
    value {
      i: 2
    }
  }
  attr {
    key: "T"
    value {
      type: DT_INT32
    }
  }
}
node {
  name: "bidirectional/forward_lstm_1/while/Merge_1"
  op: "Merge"
  input: "bidirectional/forward_lstm_1/while/Enter_1"
  input: "bidirectional/forward_lstm_1/while/NextIteration_1"
  attr {
    key: "N"
    value {
      i: 2
    }
  }
  attr {
    key: "T"
    value {
      type: DT_FLOAT
    }
  }
}
node {
  name: "bidirectional/forward_lstm_1/while/Merge_2"
  op: "Merge"
  input: "bidirectional/forward_lstm_1/while/Enter_2"
  input: "bidirectional/forward_lstm_1/while/NextIteration_2"
  attr {
    key: "N"
    value {
      i: 2
    }
  }
  attr {
    key: "T"
    value {
      type: DT_FLOAT
    }
  }
}
node {
  name: "bidirectional/forward_lstm_1/while/Merge_3"
  op: "Merge"
  input: "bidirectional/forward_lstm_1/while/Enter_3"
  input: "bidirectional/forward_lstm_1/while/NextIteration_3"
  attr {
    key: "N"
    value {
      i: 2
    }
  }
  attr {
    key: "T"
    value {
      type: DT_FLOAT
    }
  }
}
node {
  name: "bidirectional/forward_lstm_1/while/Less"
  op: "Less"
  input: "bidirectional/forward_lstm_1/while/Merge"
  input: "bidirectional/forward_lstm_1/while/Less/Enter"
  attr {
    key: "T"
    value {
      type: DT_INT32
    }
  }
}
node {
  name: "bidirectional/forward_lstm_1/while/Less/Enter"
  op: "Enter"
  input: "bidirectional/forward_lstm_1/strided_slice_1"
  attr {
    key: "T"
    value {
      type: DT_INT32
    }
  }
  attr {
    key: "frame_name"
    value {
      s: "bidirectional/forward_lstm_1/while/while_context"
    }
  }
  attr {
    key: "is_constant"
    value {
      b: true
    }
  }
  attr {
    key: "parallel_iterations"
    value {
      i: 32
    }
  }
}
node {
  name: "bidirectional/forward_lstm_1/while/LoopCond"
  op: "LoopCond"
  input: "bidirectional/forward_lstm_1/while/Less"
}
node {
  name: "bidirectional/forward_lstm_1/while/Switch"
  op: "Switch"
  input: "bidirectional/forward_lstm_1/while/Merge"
  input: "bidirectional/forward_lstm_1/while/LoopCond"
  attr {
    key: "T"
    value {
      type: DT_INT32
    }
  }
  attr {
    key: "_class"
    value {
      list {
        s: "loc:@bidirectional/forward_lstm_1/while/Merge"
      }
    }
  }
}
node {
  name: "bidirectional/forward_lstm_1/while/Switch_1"
  op: "Switch"
  input: "bidirectional/forward_lstm_1/while/Merge_1"
  input: "bidirectional/forward_lstm_1/while/LoopCond"
  attr {
    key: "T"
    value {
      type: DT_FLOAT
    }
  }
  attr {
    key: "_class"
    value {
      list {
        s: "loc:@bidirectional/forward_lstm_1/while/Merge_1"
      }
    }
  }
}
node {
  name: "bidirectional/forward_lstm_1/while/Switch_2"
  op: "Switch"
  input: "bidirectional/forward_lstm_1/while/Merge_2"
  input: "bidirectional/forward_lstm_1/while/LoopCond"
  attr {
    key: "T"
    value {
      type: DT_FLOAT
    }
  }
  attr {
    key: "_class"
    value {
      list {
        s: "loc:@bidirectional/forward_lstm_1/while/Merge_2"
      }
    }
  }
}
node {
  name: "bidirectional/forward_lstm_1/while/Switch_3"
  op: "Switch"
  input: "bidirectional/forward_lstm_1/while/Merge_3"
  input: "bidirectional/forward_lstm_1/while/LoopCond"
  attr {
    key: "T"
    value {
      type: DT_FLOAT
    }
  }
  attr {
    key: "_class"
    value {
      list {
        s: "loc:@bidirectional/forward_lstm_1/while/Merge_3"
      }
    }
  }
}
node {
  name: "bidirectional/forward_lstm_1/while/Identity"
  op: "Identity"
  input: "bidirectional/forward_lstm_1/while/Switch:1"
  attr {
    key: "T"
    value {
      type: DT_INT32
    }
  }
}
node {
  name: "bidirectional/forward_lstm_1/while/Identity_1"
  op: "Identity"
  input: "bidirectional/forward_lstm_1/while/Switch_1:1"
  attr {
    key: "T"
    value {
      type: DT_FLOAT
    }
  }
}
node {
  name: "bidirectional/forward_lstm_1/while/Identity_2"
  op: "Identity"
  input: "bidirectional/forward_lstm_1/while/Switch_2:1"
  attr {
    key: "T"
    value {
      type: DT_FLOAT
    }
  }
}
node {
  name: "bidirectional/forward_lstm_1/while/Identity_3"
  op: "Identity"
  input: "bidirectional/forward_lstm_1/while/Switch_3:1"
  attr {
    key: "T"
    value {
      type: DT_FLOAT
    }
  }
}
node {
  name: "bidirectional/forward_lstm_1/while/TensorArrayReadV3"
  op: "TensorArrayReadV3"
  input: "bidirectional/forward_lstm_1/while/TensorArrayReadV3/Enter"
  input: "bidirectional/forward_lstm_1/while/Identity"
  input: "bidirectional/forward_lstm_1/while/TensorArrayReadV3/Enter_1"
  attr {
    key: "dtype"
    value {
      type: DT_FLOAT
    }
  }
}
node {
  name: "bidirectional/forward_lstm_1/while/TensorArrayReadV3/Enter"
  op: "Enter"
  input: "bidirectional/forward_lstm_1/TensorArray"
  attr {
    key: "T"
    value {
      type: DT_RESOURCE
    }
  }
  attr {
    key: "frame_name"
    value {
      s: "bidirectional/forward_lstm_1/while/while_context"
    }
  }
  attr {
    key: "is_constant"
    value {
      b: true
    }
  }
  attr {
    key: "parallel_iterations"
    value {
      i: 32
    }
  }
}
node {
  name: "bidirectional/forward_lstm_1/while/TensorArrayReadV3/Enter_1"
  op: "Enter"
  input: "bidirectional/forward_lstm_1/TensorArrayUnstack/TensorArrayScatter/TensorArrayScatterV3"
  attr {
    key: "T"
    value {
      type: DT_FLOAT
    }
  }
  attr {
    key: "frame_name"
    value {
      s: "bidirectional/forward_lstm_1/while/while_context"
    }
  }
  attr {
    key: "is_constant"
    value {
      b: true
    }
  }
  attr {
    key: "parallel_iterations"
    value {
      i: 32
    }
  }
}
node {
  name: "bidirectional/forward_lstm_1/while/MatMul/ReadVariableOp"
  op: "ReadVariableOp"
  input: "bidirectional/forward_lstm_1/while/MatMul/ReadVariableOp/Enter"
  input: "^bidirectional/forward_lstm_1/while/Identity"
  attr {
    key: "dtype"
    value {
      type: DT_FLOAT
    }
  }
}
node {
  name: "bidirectional/forward_lstm_1/while/MatMul/ReadVariableOp/Enter"
  op: "Enter"
  input: "bidirectional/forward_lstm/kernel"
  attr {
    key: "T"
    value {
      type: DT_RESOURCE
    }
  }
  attr {
    key: "frame_name"
    value {
      s: "bidirectional/forward_lstm_1/while/while_context"
    }
  }
  attr {
    key: "is_constant"
    value {
      b: true
    }
  }
  attr {
    key: "parallel_iterations"
    value {
      i: 32
    }
  }
}
node {
  name: "bidirectional/forward_lstm_1/while/MatMul"
  op: "MatMul"
  input: "bidirectional/forward_lstm_1/while/TensorArrayReadV3"
  input: "bidirectional/forward_lstm_1/while/MatMul/ReadVariableOp"
  attr {
    key: "T"
    value {
      type: DT_FLOAT
    }
  }
  attr {
    key: "transpose_a"
    value {
      b: false
    }
  }
  attr {
    key: "transpose_b"
    value {
      b: false
    }
  }
}
node {
  name: "bidirectional/forward_lstm_1/while/MatMul_1/ReadVariableOp"
  op: "ReadVariableOp"
  input: "bidirectional/forward_lstm_1/while/MatMul_1/ReadVariableOp/Enter"
  input: "^bidirectional/forward_lstm_1/while/Identity"
  attr {
    key: "dtype"
    value {
      type: DT_FLOAT
    }
  }
}
node {
  name: "bidirectional/forward_lstm_1/while/MatMul_1/ReadVariableOp/Enter"
  op: "Enter"
  input: "bidirectional/forward_lstm/recurrent_kernel"
  attr {
    key: "T"
    value {
      type: DT_RESOURCE
    }
  }
  attr {
    key: "frame_name"
    value {
      s: "bidirectional/forward_lstm_1/while/while_context"
    }
  }
  attr {
    key: "is_constant"
    value {
      b: true
    }
  }
  attr {
    key: "parallel_iterations"
    value {
      i: 32
    }
  }
}
node {
  name: "bidirectional/forward_lstm_1/while/MatMul_1"
  op: "MatMul"
  input: "bidirectional/forward_lstm_1/while/Identity_2"
  input: "bidirectional/forward_lstm_1/while/MatMul_1/ReadVariableOp"
  attr {
    key: "T"
    value {
      type: DT_FLOAT
    }
  }
  attr {
    key: "transpose_a"
    value {
      b: false
    }
  }
  attr {
    key: "transpose_b"
    value {
      b: false
    }
  }
}
node {
  name: "bidirectional/forward_lstm_1/while/add"
  op: "AddV2"
  input: "bidirectional/forward_lstm_1/while/MatMul"
  input: "bidirectional/forward_lstm_1/while/MatMul_1"
  attr {
    key: "T"
    value {
      type: DT_FLOAT
    }
  }
}
node {
  name: "bidirectional/forward_lstm_1/while/BiasAdd/ReadVariableOp"
  op: "ReadVariableOp"
  input: "bidirectional/forward_lstm_1/while/BiasAdd/ReadVariableOp/Enter"
  input: "^bidirectional/forward_lstm_1/while/Identity"
  attr {
    key: "dtype"
    value {
      type: DT_FLOAT
    }
  }
}
node {
  name: "bidirectional/forward_lstm_1/while/BiasAdd/ReadVariableOp/Enter"
  op: "Enter"
  input: "bidirectional/forward_lstm/bias"
  attr {
    key: "T"
    value {
      type: DT_RESOURCE
    }
  }
  attr {
    key: "frame_name"
    value {
      s: "bidirectional/forward_lstm_1/while/while_context"
    }
  }
  attr {
    key: "is_constant"
    value {
      b: true
    }
  }
  attr {
    key: "parallel_iterations"
    value {
      i: 32
    }
  }
}
node {
  name: "bidirectional/forward_lstm_1/while/BiasAdd"
  op: "BiasAdd"
  input: "bidirectional/forward_lstm_1/while/add"
  input: "bidirectional/forward_lstm_1/while/BiasAdd/ReadVariableOp"
  attr {
    key: "T"
    value {
      type: DT_FLOAT
    }
  }
  attr {
    key: "data_format"
    value {
      s: "NHWC"
    }
  }
}
node {
  name: "bidirectional/forward_lstm_1/while/Const"
  op: "Const"
  input: "^bidirectional/forward_lstm_1/while/Identity"
  attr {
    key: "dtype"
    value {
      type: DT_INT32
    }
  }
  attr {
    key: "value"
    value {
      tensor {
        dtype: DT_INT32
        tensor_shape {
        }
        int_val: 4
      }
    }
  }
}
node {
  name: "bidirectional/forward_lstm_1/while/split/split_dim"
  op: "Const"
  input: "^bidirectional/forward_lstm_1/while/Identity"
  attr {
    key: "dtype"
    value {
      type: DT_INT32
    }
  }
  attr {
    key: "value"
    value {
      tensor {
        dtype: DT_INT32
        tensor_shape {
        }
        int_val: 1
      }
    }
  }
}
node {
  name: "bidirectional/forward_lstm_1/while/split"
  op: "Split"
  input: "bidirectional/forward_lstm_1/while/split/split_dim"
  input: "bidirectional/forward_lstm_1/while/BiasAdd"
  attr {
    key: "T"
    value {
      type: DT_FLOAT
    }
  }
  attr {
    key: "num_split"
    value {
      i: 4
    }
  }
}
node {
  name: "bidirectional/forward_lstm_1/while/Sigmoid"
  op: "Sigmoid"
  input: "bidirectional/forward_lstm_1/while/split"
  attr {
    key: "T"
    value {
      type: DT_FLOAT
    }
  }
}
node {
  name: "bidirectional/forward_lstm_1/while/Sigmoid_1"
  op: "Sigmoid"
  input: "bidirectional/forward_lstm_1/while/split:1"
  attr {
    key: "T"
    value {
      type: DT_FLOAT
    }
  }
}
node {
  name: "bidirectional/forward_lstm_1/while/mul"
  op: "Mul"
  input: "bidirectional/forward_lstm_1/while/Sigmoid_1"
  input: "bidirectional/forward_lstm_1/while/Identity_3"
  attr {
    key: "T"
    value {
      type: DT_FLOAT
    }
  }
}
node {
  name: "bidirectional/forward_lstm_1/while/Tanh"
  op: "Tanh"
  input: "bidirectional/forward_lstm_1/while/split:2"
  attr {
    key: "T"
    value {
      type: DT_FLOAT
    }
  }
}
node {
  name: "bidirectional/forward_lstm_1/while/mul_1"
  op: "Mul"
  input: "bidirectional/forward_lstm_1/while/Sigmoid"
  input: "bidirectional/forward_lstm_1/while/Tanh"
  attr {
    key: "T"
    value {
      type: DT_FLOAT
    }
  }
}
node {
  name: "bidirectional/forward_lstm_1/while/add_1"
  op: "AddV2"
  input: "bidirectional/forward_lstm_1/while/mul"
  input: "bidirectional/forward_lstm_1/while/mul_1"
  attr {
    key: "T"
    value {
      type: DT_FLOAT
    }
  }
}
node {
  name: "bidirectional/forward_lstm_1/while/Sigmoid_2"
  op: "Sigmoid"
  input: "bidirectional/forward_lstm_1/while/split:3"
  attr {
    key: "T"
    value {
      type: DT_FLOAT
    }
  }
}
node {
  name: "bidirectional/forward_lstm_1/while/Tanh_1"
  op: "Tanh"
  input: "bidirectional/forward_lstm_1/while/add_1"
  attr {
    key: "T"
    value {
      type: DT_FLOAT
    }
  }
}
node {
  name: "bidirectional/forward_lstm_1/while/mul_2"
  op: "Mul"
  input: "bidirectional/forward_lstm_1/while/Sigmoid_2"
  input: "bidirectional/forward_lstm_1/while/Tanh_1"
  attr {
    key: "T"
    value {
      type: DT_FLOAT
    }
  }
}
node {
  name: "bidirectional/forward_lstm_1/while/TensorArrayWrite/TensorArrayWriteV3"
  op: "TensorArrayWriteV3"
  input: "bidirectional/forward_lstm_1/while/TensorArrayWrite/TensorArrayWriteV3/Enter"
  input: "bidirectional/forward_lstm_1/while/Identity"
  input: "bidirectional/forward_lstm_1/while/mul_2"
  input: "bidirectional/forward_lstm_1/while/Identity_1"
  attr {
    key: "T"
    value {
      type: DT_FLOAT
    }
  }
  attr {
    key: "_class"
    value {
      list {
        s: "loc:@bidirectional/forward_lstm_1/while/mul_2"
      }
    }
  }
}
node {
  name: "bidirectional/forward_lstm_1/while/TensorArrayWrite/TensorArrayWriteV3/Enter"
  op: "Enter"
  input: "bidirectional/forward_lstm_1/TensorArray_1"
  attr {
    key: "T"
    value {
      type: DT_RESOURCE
    }
  }
  attr {
    key: "_class"
    value {
      list {
        s: "loc:@bidirectional/forward_lstm_1/while/mul_2"
      }
    }
  }
  attr {
    key: "frame_name"
    value {
      s: "bidirectional/forward_lstm_1/while/while_context"
    }
  }
  attr {
    key: "is_constant"
    value {
      b: true
    }
  }
  attr {
    key: "parallel_iterations"
    value {
      i: 32
    }
  }
}
node {
  name: "bidirectional/forward_lstm_1/while/add_2/y"
  op: "Const"
  input: "^bidirectional/forward_lstm_1/while/Identity"
  attr {
    key: "dtype"
    value {
      type: DT_INT32
    }
  }
  attr {
    key: "value"
    value {
      tensor {
        dtype: DT_INT32
        tensor_shape {
        }
        int_val: 1
      }
    }
  }
}
node {
  name: "bidirectional/forward_lstm_1/while/add_2"
  op: "AddV2"
  input: "bidirectional/forward_lstm_1/while/Identity"
  input: "bidirectional/forward_lstm_1/while/add_2/y"
  attr {
    key: "T"
    value {
      type: DT_INT32
    }
  }
}
node {
  name: "bidirectional/forward_lstm_1/while/NextIteration"
  op: "NextIteration"
  input: "bidirectional/forward_lstm_1/while/add_2"
  attr {
    key: "T"
    value {
      type: DT_INT32
    }
  }
}
node {
  name: "bidirectional/forward_lstm_1/while/NextIteration_1"
  op: "NextIteration"
  input: "bidirectional/forward_lstm_1/while/TensorArrayWrite/TensorArrayWriteV3"
  attr {
    key: "T"
    value {
      type: DT_FLOAT
    }
  }
}
node {
  name: "bidirectional/forward_lstm_1/while/NextIteration_2"
  op: "NextIteration"
  input: "bidirectional/forward_lstm_1/while/mul_2"
  attr {
    key: "T"
    value {
      type: DT_FLOAT
    }
  }
}
node {
  name: "bidirectional/forward_lstm_1/while/NextIteration_3"
  op: "NextIteration"
  input: "bidirectional/forward_lstm_1/while/add_1"
  attr {
    key: "T"
    value {
      type: DT_FLOAT
    }
  }
}
node {
  name: "bidirectional/forward_lstm_1/while/Exit"
  op: "Exit"
  input: "bidirectional/forward_lstm_1/while/Switch"
  attr {
    key: "T"
    value {
      type: DT_INT32
    }
  }
}
node {
  name: "bidirectional/forward_lstm_1/while/Exit_1"
  op: "Exit"
  input: "bidirectional/forward_lstm_1/while/Switch_1"
  attr {
    key: "T"
    value {
      type: DT_FLOAT
    }
  }
}
node {
  name: "bidirectional/forward_lstm_1/while/Exit_2"
  op: "Exit"
  input: "bidirectional/forward_lstm_1/while/Switch_2"
  attr {
    key: "T"
    value {
      type: DT_FLOAT
    }
  }
}
node {
  name: "bidirectional/forward_lstm_1/while/Exit_3"
  op: "Exit"
  input: "bidirectional/forward_lstm_1/while/Switch_3"
  attr {
    key: "T"
    value {
      type: DT_FLOAT
    }
  }
}
node {
  name: "bidirectional/forward_lstm_1/TensorArrayStack/TensorArraySizeV3"
  op: "TensorArraySizeV3"
  input: "bidirectional/forward_lstm_1/TensorArray_1"
  input: "bidirectional/forward_lstm_1/while/Exit_1"
  attr {
    key: "_class"
    value {
      list {
        s: "loc:@bidirectional/forward_lstm_1/TensorArray_1"
      }
    }
  }
}
node {
  name: "bidirectional/forward_lstm_1/TensorArrayStack/range/start"
  op: "Const"
  attr {
    key: "_class"
    value {
      list {
        s: "loc:@bidirectional/forward_lstm_1/TensorArray_1"
      }
    }
  }
  attr {
    key: "dtype"
    value {
      type: DT_INT32
    }
  }
  attr {
    key: "value"
    value {
      tensor {
        dtype: DT_INT32
        tensor_shape {
        }
        int_val: 0
      }
    }
  }
}
node {
  name: "bidirectional/forward_lstm_1/TensorArrayStack/range/delta"
  op: "Const"
  attr {
    key: "_class"
    value {
      list {
        s: "loc:@bidirectional/forward_lstm_1/TensorArray_1"
      }
    }
  }
  attr {
    key: "dtype"
    value {
      type: DT_INT32
    }
  }
  attr {
    key: "value"
    value {
      tensor {
        dtype: DT_INT32
        tensor_shape {
        }
        int_val: 1
      }
    }
  }
}
node {
  name: "bidirectional/forward_lstm_1/TensorArrayStack/range"
  op: "Range"
  input: "bidirectional/forward_lstm_1/TensorArrayStack/range/start"
  input: "bidirectional/forward_lstm_1/TensorArrayStack/TensorArraySizeV3"
  input: "bidirectional/forward_lstm_1/TensorArrayStack/range/delta"
  attr {
    key: "Tidx"
    value {
      type: DT_INT32
    }
  }
  attr {
    key: "_class"
    value {
      list {
        s: "loc:@bidirectional/forward_lstm_1/TensorArray_1"
      }
    }
  }
}
node {
  name: "bidirectional/forward_lstm_1/TensorArrayStack/TensorArrayGatherV3"
  op: "TensorArrayGatherV3"
  input: "bidirectional/forward_lstm_1/TensorArray_1"
  input: "bidirectional/forward_lstm_1/TensorArrayStack/range"
  input: "bidirectional/forward_lstm_1/while/Exit_1"
  attr {
    key: "_class"
    value {
      list {
        s: "loc:@bidirectional/forward_lstm_1/TensorArray_1"
      }
    }
  }
  attr {
    key: "dtype"
    value {
      type: DT_FLOAT
    }
  }
  attr {
    key: "element_shape"
    value {
      shape {
        dim {
          size: -1
        }
        dim {
          size: 128
        }
      }
    }
  }
}
node {
  name: "bidirectional/forward_lstm_1/strided_slice_3/stack"
  op: "Const"
  attr {
    key: "dtype"
    value {
      type: DT_INT32
    }
  }
  attr {
    key: "value"
    value {
      tensor {
        dtype: DT_INT32
        tensor_shape {
          dim {
            size: 1
          }
        }
        int_val: -1
      }
    }
  }
}
node {
  name: "bidirectional/forward_lstm_1/strided_slice_3/stack_1"
  op: "Const"
  attr {
    key: "dtype"
    value {
      type: DT_INT32
    }
  }
  attr {
    key: "value"
    value {
      tensor {
        dtype: DT_INT32
        tensor_shape {
          dim {
            size: 1
          }
        }
        int_val: 0
      }
    }
  }
}
node {
  name: "bidirectional/forward_lstm_1/strided_slice_3/stack_2"
  op: "Const"
  attr {
    key: "dtype"
    value {
      type: DT_INT32
    }
  }
  attr {
    key: "value"
    value {
      tensor {
        dtype: DT_INT32
        tensor_shape {
          dim {
            size: 1
          }
        }
        int_val: 1
      }
    }
  }
}
node {
  name: "bidirectional/forward_lstm_1/strided_slice_3"
  op: "StridedSlice"
  input: "bidirectional/forward_lstm_1/TensorArrayStack/TensorArrayGatherV3"
  input: "bidirectional/forward_lstm_1/strided_slice_3/stack"
  input: "bidirectional/forward_lstm_1/strided_slice_3/stack_1"
  input: "bidirectional/forward_lstm_1/strided_slice_3/stack_2"
  attr {
    key: "Index"
    value {
      type: DT_INT32
    }
  }
  attr {
    key: "T"
    value {
      type: DT_FLOAT
    }
  }
  attr {
    key: "begin_mask"
    value {
      i: 0
    }
  }
  attr {
    key: "ellipsis_mask"
    value {
      i: 0
    }
  }
  attr {
    key: "end_mask"
    value {
      i: 0
    }
  }
  attr {
    key: "new_axis_mask"
    value {
      i: 0
    }
  }
  attr {
    key: "shrink_axis_mask"
    value {
      i: 1
    }
  }
}
node {
  name: "bidirectional/forward_lstm_1/transpose_1/perm"
  op: "Const"
  attr {
    key: "dtype"
    value {
      type: DT_INT32
    }
  }
  attr {
    key: "value"
    value {
      tensor {
        dtype: DT_INT32
        tensor_shape {
          dim {
            size: 3
          }
        }
        tensor_content: "\001\000\000\000\000\000\000\000\002\000\000\000"
      }
    }
  }
}
node {
  name: "bidirectional/forward_lstm_1/transpose_1"
  op: "Transpose"
  input: "bidirectional/forward_lstm_1/TensorArrayStack/TensorArrayGatherV3"
  input: "bidirectional/forward_lstm_1/transpose_1/perm"
  attr {
    key: "T"
    value {
      type: DT_FLOAT
    }
  }
  attr {
    key: "Tperm"
    value {
      type: DT_INT32
    }
  }
}
node {
  name: "bidirectional/backward_lstm_1/Shape"
  op: "Shape"
  input: "input_1"
  attr {
    key: "T"
    value {
      type: DT_FLOAT
    }
  }
  attr {
    key: "out_type"
    value {
      type: DT_INT32
    }
  }
}
node {
  name: "bidirectional/backward_lstm_1/strided_slice/stack"
  op: "Const"
  attr {
    key: "dtype"
    value {
      type: DT_INT32
    }
  }
  attr {
    key: "value"
    value {
      tensor {
        dtype: DT_INT32
        tensor_shape {
          dim {
            size: 1
          }
        }
        int_val: 0
      }
    }
  }
}
node {
  name: "bidirectional/backward_lstm_1/strided_slice/stack_1"
  op: "Const"
  attr {
    key: "dtype"
    value {
      type: DT_INT32
    }
  }
  attr {
    key: "value"
    value {
      tensor {
        dtype: DT_INT32
        tensor_shape {
          dim {
            size: 1
          }
        }
        int_val: 1
      }
    }
  }
}
node {
  name: "bidirectional/backward_lstm_1/strided_slice/stack_2"
  op: "Const"
  attr {
    key: "dtype"
    value {
      type: DT_INT32
    }
  }
  attr {
    key: "value"
    value {
      tensor {
        dtype: DT_INT32
        tensor_shape {
          dim {
            size: 1
          }
        }
        int_val: 1
      }
    }
  }
}
node {
  name: "bidirectional/backward_lstm_1/strided_slice"
  op: "StridedSlice"
  input: "bidirectional/backward_lstm_1/Shape"
  input: "bidirectional/backward_lstm_1/strided_slice/stack"
  input: "bidirectional/backward_lstm_1/strided_slice/stack_1"
  input: "bidirectional/backward_lstm_1/strided_slice/stack_2"
  attr {
    key: "Index"
    value {
      type: DT_INT32
    }
  }
  attr {
    key: "T"
    value {
      type: DT_INT32
    }
  }
  attr {
    key: "begin_mask"
    value {
      i: 0
    }
  }
  attr {
    key: "ellipsis_mask"
    value {
      i: 0
    }
  }
  attr {
    key: "end_mask"
    value {
      i: 0
    }
  }
  attr {
    key: "new_axis_mask"
    value {
      i: 0
    }
  }
  attr {
    key: "shrink_axis_mask"
    value {
      i: 1
    }
  }
}
node {
  name: "bidirectional/backward_lstm_1/zeros/mul/y"
  op: "Const"
  attr {
    key: "dtype"
    value {
      type: DT_INT32
    }
  }
  attr {
    key: "value"
    value {
      tensor {
        dtype: DT_INT32
        tensor_shape {
        }
        int_val: 128
      }
    }
  }
}
node {
  name: "bidirectional/backward_lstm_1/zeros/mul"
  op: "Mul"
  input: "bidirectional/backward_lstm_1/strided_slice"
  input: "bidirectional/backward_lstm_1/zeros/mul/y"
  attr {
    key: "T"
    value {
      type: DT_INT32
    }
  }
}
node {
  name: "bidirectional/backward_lstm_1/zeros/Less/y"
  op: "Const"
  attr {
    key: "dtype"
    value {
      type: DT_INT32
    }
  }
  attr {
    key: "value"
    value {
      tensor {
        dtype: DT_INT32
        tensor_shape {
        }
        int_val: 1000
      }
    }
  }
}
node {
  name: "bidirectional/backward_lstm_1/zeros/Less"
  op: "Less"
  input: "bidirectional/backward_lstm_1/zeros/mul"
  input: "bidirectional/backward_lstm_1/zeros/Less/y"
  attr {
    key: "T"
    value {
      type: DT_INT32
    }
  }
}
node {
  name: "bidirectional/backward_lstm_1/zeros/packed/1"
  op: "Const"
  attr {
    key: "dtype"
    value {
      type: DT_INT32
    }
  }
  attr {
    key: "value"
    value {
      tensor {
        dtype: DT_INT32
        tensor_shape {
        }
        int_val: 128
      }
    }
  }
}
node {
  name: "bidirectional/backward_lstm_1/zeros/packed"
  op: "Pack"
  input: "bidirectional/backward_lstm_1/strided_slice"
  input: "bidirectional/backward_lstm_1/zeros/packed/1"
  attr {
    key: "N"
    value {
      i: 2
    }
  }
  attr {
    key: "T"
    value {
      type: DT_INT32
    }
  }
  attr {
    key: "axis"
    value {
      i: 0
    }
  }
}
node {
  name: "bidirectional/backward_lstm_1/zeros/Const"
  op: "Const"
  attr {
    key: "dtype"
    value {
      type: DT_FLOAT
    }
  }
  attr {
    key: "value"
    value {
      tensor {
        dtype: DT_FLOAT
        tensor_shape {
        }
        float_val: 0.0
      }
    }
  }
}
node {
  name: "bidirectional/backward_lstm_1/zeros"
  op: "Fill"
  input: "bidirectional/backward_lstm_1/zeros/packed"
  input: "bidirectional/backward_lstm_1/zeros/Const"
  attr {
    key: "T"
    value {
      type: DT_FLOAT
    }
  }
  attr {
    key: "index_type"
    value {
      type: DT_INT32
    }
  }
}
node {
  name: "bidirectional/backward_lstm_1/zeros_1/mul/y"
  op: "Const"
  attr {
    key: "dtype"
    value {
      type: DT_INT32
    }
  }
  attr {
    key: "value"
    value {
      tensor {
        dtype: DT_INT32
        tensor_shape {
        }
        int_val: 128
      }
    }
  }
}
node {
  name: "bidirectional/backward_lstm_1/zeros_1/mul"
  op: "Mul"
  input: "bidirectional/backward_lstm_1/strided_slice"
  input: "bidirectional/backward_lstm_1/zeros_1/mul/y"
  attr {
    key: "T"
    value {
      type: DT_INT32
    }
  }
}
node {
  name: "bidirectional/backward_lstm_1/zeros_1/Less/y"
  op: "Const"
  attr {
    key: "dtype"
    value {
      type: DT_INT32
    }
  }
  attr {
    key: "value"
    value {
      tensor {
        dtype: DT_INT32
        tensor_shape {
        }
        int_val: 1000
      }
    }
  }
}
node {
  name: "bidirectional/backward_lstm_1/zeros_1/Less"
  op: "Less"
  input: "bidirectional/backward_lstm_1/zeros_1/mul"
  input: "bidirectional/backward_lstm_1/zeros_1/Less/y"
  attr {
    key: "T"
    value {
      type: DT_INT32
    }
  }
}
node {
  name: "bidirectional/backward_lstm_1/zeros_1/packed/1"
  op: "Const"
  attr {
    key: "dtype"
    value {
      type: DT_INT32
    }
  }
  attr {
    key: "value"
    value {
      tensor {
        dtype: DT_INT32
        tensor_shape {
        }
        int_val: 128
      }
    }
  }
}
node {
  name: "bidirectional/backward_lstm_1/zeros_1/packed"
  op: "Pack"
  input: "bidirectional/backward_lstm_1/strided_slice"
  input: "bidirectional/backward_lstm_1/zeros_1/packed/1"
  attr {
    key: "N"
    value {
      i: 2
    }
  }
  attr {
    key: "T"
    value {
      type: DT_INT32
    }
  }
  attr {
    key: "axis"
    value {
      i: 0
    }
  }
}
node {
  name: "bidirectional/backward_lstm_1/zeros_1/Const"
  op: "Const"
  attr {
    key: "dtype"
    value {
      type: DT_FLOAT
    }
  }
  attr {
    key: "value"
    value {
      tensor {
        dtype: DT_FLOAT
        tensor_shape {
        }
        float_val: 0.0
      }
    }
  }
}
node {
  name: "bidirectional/backward_lstm_1/zeros_1"
  op: "Fill"
  input: "bidirectional/backward_lstm_1/zeros_1/packed"
  input: "bidirectional/backward_lstm_1/zeros_1/Const"
  attr {
    key: "T"
    value {
      type: DT_FLOAT
    }
  }
  attr {
    key: "index_type"
    value {
      type: DT_INT32
    }
  }
}
node {
  name: "bidirectional/backward_lstm_1/transpose/perm"
  op: "Const"
  attr {
    key: "dtype"
    value {
      type: DT_INT32
    }
  }
  attr {
    key: "value"
    value {
      tensor {
        dtype: DT_INT32
        tensor_shape {
          dim {
            size: 3
          }
        }
        tensor_content: "\001\000\000\000\000\000\000\000\002\000\000\000"
      }
    }
  }
}
node {
  name: "bidirectional/backward_lstm_1/transpose"
  op: "Transpose"
  input: "input_1"
  input: "bidirectional/backward_lstm_1/transpose/perm"
  attr {
    key: "T"
    value {
      type: DT_FLOAT
    }
  }
  attr {
    key: "Tperm"
    value {
      type: DT_INT32
    }
  }
}
node {
  name: "bidirectional/backward_lstm_1/Shape_1"
  op: "Shape"
  input: "bidirectional/backward_lstm_1/transpose"
  attr {
    key: "T"
    value {
      type: DT_FLOAT
    }
  }
  attr {
    key: "out_type"
    value {
      type: DT_INT32
    }
  }
}
node {
  name: "bidirectional/backward_lstm_1/strided_slice_1/stack"
  op: "Const"
  attr {
    key: "dtype"
    value {
      type: DT_INT32
    }
  }
  attr {
    key: "value"
    value {
      tensor {
        dtype: DT_INT32
        tensor_shape {
          dim {
            size: 1
          }
        }
        int_val: 0
      }
    }
  }
}
node {
  name: "bidirectional/backward_lstm_1/strided_slice_1/stack_1"
  op: "Const"
  attr {
    key: "dtype"
    value {
      type: DT_INT32
    }
  }
  attr {
    key: "value"
    value {
      tensor {
        dtype: DT_INT32
        tensor_shape {
          dim {
            size: 1
          }
        }
        int_val: 1
      }
    }
  }
}
node {
  name: "bidirectional/backward_lstm_1/strided_slice_1/stack_2"
  op: "Const"
  attr {
    key: "dtype"
    value {
      type: DT_INT32
    }
  }
  attr {
    key: "value"
    value {
      tensor {
        dtype: DT_INT32
        tensor_shape {
          dim {
            size: 1
          }
        }
        int_val: 1
      }
    }
  }
}
node {
  name: "bidirectional/backward_lstm_1/strided_slice_1"
  op: "StridedSlice"
  input: "bidirectional/backward_lstm_1/Shape_1"
  input: "bidirectional/backward_lstm_1/strided_slice_1/stack"
  input: "bidirectional/backward_lstm_1/strided_slice_1/stack_1"
  input: "bidirectional/backward_lstm_1/strided_slice_1/stack_2"
  attr {
    key: "Index"
    value {
      type: DT_INT32
    }
  }
  attr {
    key: "T"
    value {
      type: DT_INT32
    }
  }
  attr {
    key: "begin_mask"
    value {
      i: 0
    }
  }
  attr {
    key: "ellipsis_mask"
    value {
      i: 0
    }
  }
  attr {
    key: "end_mask"
    value {
      i: 0
    }
  }
  attr {
    key: "new_axis_mask"
    value {
      i: 0
    }
  }
  attr {
    key: "shrink_axis_mask"
    value {
      i: 1
    }
  }
}
node {
  name: "bidirectional/backward_lstm_1/TensorArray"
  op: "TensorArrayV3"
  input: "bidirectional/backward_lstm_1/strided_slice_1"
  attr {
    key: "clear_after_read"
    value {
      b: true
    }
  }
  attr {
    key: "dtype"
    value {
      type: DT_FLOAT
    }
  }
  attr {
    key: "dynamic_size"
    value {
      b: false
    }
  }
  attr {
    key: "element_shape"
    value {
      shape {
        unknown_rank: true
      }
    }
  }
  attr {
    key: "identical_element_shapes"
    value {
      b: true
    }
  }
  attr {
    key: "tensor_array_name"
    value {
      s: "input_ta_0"
    }
  }
}
node {
  name: "bidirectional/backward_lstm_1/ReverseV2/axis"
  op: "Const"
  attr {
    key: "dtype"
    value {
      type: DT_INT32
    }
  }
  attr {
    key: "value"
    value {
      tensor {
        dtype: DT_INT32
        tensor_shape {
          dim {
            size: 1
          }
        }
        int_val: 0
      }
    }
  }
}
node {
  name: "bidirectional/backward_lstm_1/ReverseV2"
  op: "ReverseV2"
  input: "bidirectional/backward_lstm_1/transpose"
  input: "bidirectional/backward_lstm_1/ReverseV2/axis"
  attr {
    key: "T"
    value {
      type: DT_FLOAT
    }
  }
  attr {
    key: "Tidx"
    value {
      type: DT_INT32
    }
  }
}
node {
  name: "bidirectional/backward_lstm_1/TensorArrayUnstack/Shape"
  op: "Shape"
  input: "bidirectional/backward_lstm_1/ReverseV2"
  attr {
    key: "T"
    value {
      type: DT_FLOAT
    }
  }
  attr {
    key: "out_type"
    value {
      type: DT_INT32
    }
  }
}
node {
  name: "bidirectional/backward_lstm_1/TensorArrayUnstack/strided_slice/stack"
  op: "Const"
  attr {
    key: "dtype"
    value {
      type: DT_INT32
    }
  }
  attr {
    key: "value"
    value {
      tensor {
        dtype: DT_INT32
        tensor_shape {
          dim {
            size: 1
          }
        }
        int_val: 0
      }
    }
  }
}
node {
  name: "bidirectional/backward_lstm_1/TensorArrayUnstack/strided_slice/stack_1"
  op: "Const"
  attr {
    key: "dtype"
    value {
      type: DT_INT32
    }
  }
  attr {
    key: "value"
    value {
      tensor {
        dtype: DT_INT32
        tensor_shape {
          dim {
            size: 1
          }
        }
        int_val: 1
      }
    }
  }
}
node {
  name: "bidirectional/backward_lstm_1/TensorArrayUnstack/strided_slice/stack_2"
  op: "Const"
  attr {
    key: "dtype"
    value {
      type: DT_INT32
    }
  }
  attr {
    key: "value"
    value {
      tensor {
        dtype: DT_INT32
        tensor_shape {
          dim {
            size: 1
          }
        }
        int_val: 1
      }
    }
  }
}
node {
  name: "bidirectional/backward_lstm_1/TensorArrayUnstack/strided_slice"
  op: "StridedSlice"
  input: "bidirectional/backward_lstm_1/TensorArrayUnstack/Shape"
  input: "bidirectional/backward_lstm_1/TensorArrayUnstack/strided_slice/stack"
  input: "bidirectional/backward_lstm_1/TensorArrayUnstack/strided_slice/stack_1"
  input: "bidirectional/backward_lstm_1/TensorArrayUnstack/strided_slice/stack_2"
  attr {
    key: "Index"
    value {
      type: DT_INT32
    }
  }
  attr {
    key: "T"
    value {
      type: DT_INT32
    }
  }
  attr {
    key: "begin_mask"
    value {
      i: 0
    }
  }
  attr {
    key: "ellipsis_mask"
    value {
      i: 0
    }
  }
  attr {
    key: "end_mask"
    value {
      i: 0
    }
  }
  attr {
    key: "new_axis_mask"
    value {
      i: 0
    }
  }
  attr {
    key: "shrink_axis_mask"
    value {
      i: 1
    }
  }
}
node {
  name: "bidirectional/backward_lstm_1/TensorArrayUnstack/range/start"
  op: "Const"
  attr {
    key: "dtype"
    value {
      type: DT_INT32
    }
  }
  attr {
    key: "value"
    value {
      tensor {
        dtype: DT_INT32
        tensor_shape {
        }
        int_val: 0
      }
    }
  }
}
node {
  name: "bidirectional/backward_lstm_1/TensorArrayUnstack/range/delta"
  op: "Const"
  attr {
    key: "dtype"
    value {
      type: DT_INT32
    }
  }
  attr {
    key: "value"
    value {
      tensor {
        dtype: DT_INT32
        tensor_shape {
        }
        int_val: 1
      }
    }
  }
}
node {
  name: "bidirectional/backward_lstm_1/TensorArrayUnstack/range"
  op: "Range"
  input: "bidirectional/backward_lstm_1/TensorArrayUnstack/range/start"
  input: "bidirectional/backward_lstm_1/TensorArrayUnstack/strided_slice"
  input: "bidirectional/backward_lstm_1/TensorArrayUnstack/range/delta"
  attr {
    key: "Tidx"
    value {
      type: DT_INT32
    }
  }
}
node {
  name: "bidirectional/backward_lstm_1/TensorArrayUnstack/TensorArrayScatter/TensorArrayScatterV3"
  op: "TensorArrayScatterV3"
  input: "bidirectional/backward_lstm_1/TensorArray"
  input: "bidirectional/backward_lstm_1/TensorArrayUnstack/range"
  input: "bidirectional/backward_lstm_1/ReverseV2"
  input: "bidirectional/backward_lstm_1/TensorArray:1"
  attr {
    key: "T"
    value {
      type: DT_FLOAT
    }
  }
  attr {
    key: "_class"
    value {
      list {
        s: "loc:@bidirectional/backward_lstm_1/ReverseV2"
      }
    }
  }
}
node {
  name: "bidirectional/backward_lstm_1/strided_slice_2/stack"
  op: "Const"
  attr {
    key: "dtype"
    value {
      type: DT_INT32
    }
  }
  attr {
    key: "value"
    value {
      tensor {
        dtype: DT_INT32
        tensor_shape {
          dim {
            size: 1
          }
        }
        int_val: 0
      }
    }
  }
}
node {
  name: "bidirectional/backward_lstm_1/strided_slice_2/stack_1"
  op: "Const"
  attr {
    key: "dtype"
    value {
      type: DT_INT32
    }
  }
  attr {
    key: "value"
    value {
      tensor {
        dtype: DT_INT32
        tensor_shape {
          dim {
            size: 1
          }
        }
        int_val: 1
      }
    }
  }
}
node {
  name: "bidirectional/backward_lstm_1/strided_slice_2/stack_2"
  op: "Const"
  attr {
    key: "dtype"
    value {
      type: DT_INT32
    }
  }
  attr {
    key: "value"
    value {
      tensor {
        dtype: DT_INT32
        tensor_shape {
          dim {
            size: 1
          }
        }
        int_val: 1
      }
    }
  }
}
node {
  name: "bidirectional/backward_lstm_1/strided_slice_2"
  op: "StridedSlice"
  input: "bidirectional/backward_lstm_1/transpose"
  input: "bidirectional/backward_lstm_1/strided_slice_2/stack"
  input: "bidirectional/backward_lstm_1/strided_slice_2/stack_1"
  input: "bidirectional/backward_lstm_1/strided_slice_2/stack_2"
  attr {
    key: "Index"
    value {
      type: DT_INT32
    }
  }
  attr {
    key: "T"
    value {
      type: DT_FLOAT
    }
  }
  attr {
    key: "begin_mask"
    value {
      i: 0
    }
  }
  attr {
    key: "ellipsis_mask"
    value {
      i: 0
    }
  }
  attr {
    key: "end_mask"
    value {
      i: 0
    }
  }
  attr {
    key: "new_axis_mask"
    value {
      i: 0
    }
  }
  attr {
    key: "shrink_axis_mask"
    value {
      i: 1
    }
  }
}
node {
  name: "bidirectional/backward_lstm_1/MatMul/ReadVariableOp"
  op: "ReadVariableOp"
  input: "bidirectional/backward_lstm/kernel"
  attr {
    key: "dtype"
    value {
      type: DT_FLOAT
    }
  }
}
node {
  name: "bidirectional/backward_lstm_1/MatMul"
  op: "MatMul"
  input: "bidirectional/backward_lstm_1/strided_slice_2"
  input: "bidirectional/backward_lstm_1/MatMul/ReadVariableOp"
  attr {
    key: "T"
    value {
      type: DT_FLOAT
    }
  }
  attr {
    key: "transpose_a"
    value {
      b: false
    }
  }
  attr {
    key: "transpose_b"
    value {
      b: false
    }
  }
}
node {
  name: "bidirectional/backward_lstm_1/MatMul_1/ReadVariableOp"
  op: "ReadVariableOp"
  input: "bidirectional/backward_lstm/recurrent_kernel"
  attr {
    key: "dtype"
    value {
      type: DT_FLOAT
    }
  }
}
node {
  name: "bidirectional/backward_lstm_1/MatMul_1"
  op: "MatMul"
  input: "bidirectional/backward_lstm_1/zeros"
  input: "bidirectional/backward_lstm_1/MatMul_1/ReadVariableOp"
  attr {
    key: "T"
    value {
      type: DT_FLOAT
    }
  }
  attr {
    key: "transpose_a"
    value {
      b: false
    }
  }
  attr {
    key: "transpose_b"
    value {
      b: false
    }
  }
}
node {
  name: "bidirectional/backward_lstm_1/add"
  op: "AddV2"
  input: "bidirectional/backward_lstm_1/MatMul"
  input: "bidirectional/backward_lstm_1/MatMul_1"
  attr {
    key: "T"
    value {
      type: DT_FLOAT
    }
  }
}
node {
  name: "bidirectional/backward_lstm_1/BiasAdd/ReadVariableOp"
  op: "ReadVariableOp"
  input: "bidirectional/backward_lstm/bias"
  attr {
    key: "dtype"
    value {
      type: DT_FLOAT
    }
  }
}
node {
  name: "bidirectional/backward_lstm_1/BiasAdd"
  op: "BiasAdd"
  input: "bidirectional/backward_lstm_1/add"
  input: "bidirectional/backward_lstm_1/BiasAdd/ReadVariableOp"
  attr {
    key: "T"
    value {
      type: DT_FLOAT
    }
  }
  attr {
    key: "data_format"
    value {
      s: "NHWC"
    }
  }
}
node {
  name: "bidirectional/backward_lstm_1/Const"
  op: "Const"
  attr {
    key: "dtype"
    value {
      type: DT_INT32
    }
  }
  attr {
    key: "value"
    value {
      tensor {
        dtype: DT_INT32
        tensor_shape {
        }
        int_val: 4
      }
    }
  }
}
node {
  name: "bidirectional/backward_lstm_1/split/split_dim"
  op: "Const"
  attr {
    key: "dtype"
    value {
      type: DT_INT32
    }
  }
  attr {
    key: "value"
    value {
      tensor {
        dtype: DT_INT32
        tensor_shape {
        }
        int_val: 1
      }
    }
  }
}
node {
  name: "bidirectional/backward_lstm_1/split"
  op: "Split"
  input: "bidirectional/backward_lstm_1/split/split_dim"
  input: "bidirectional/backward_lstm_1/BiasAdd"
  attr {
    key: "T"
    value {
      type: DT_FLOAT
    }
  }
  attr {
    key: "num_split"
    value {
      i: 4
    }
  }
}
node {
  name: "bidirectional/backward_lstm_1/Sigmoid"
  op: "Sigmoid"
  input: "bidirectional/backward_lstm_1/split"
  attr {
    key: "T"
    value {
      type: DT_FLOAT
    }
  }
}
node {
  name: "bidirectional/backward_lstm_1/Sigmoid_1"
  op: "Sigmoid"
  input: "bidirectional/backward_lstm_1/split:1"
  attr {
    key: "T"
    value {
      type: DT_FLOAT
    }
  }
}
node {
  name: "bidirectional/backward_lstm_1/mul"
  op: "Mul"
  input: "bidirectional/backward_lstm_1/Sigmoid_1"
  input: "bidirectional/backward_lstm_1/zeros_1"
  attr {
    key: "T"
    value {
      type: DT_FLOAT
    }
  }
}
node {
  name: "bidirectional/backward_lstm_1/Tanh"
  op: "Tanh"
  input: "bidirectional/backward_lstm_1/split:2"
  attr {
    key: "T"
    value {
      type: DT_FLOAT
    }
  }
}
node {
  name: "bidirectional/backward_lstm_1/mul_1"
  op: "Mul"
  input: "bidirectional/backward_lstm_1/Sigmoid"
  input: "bidirectional/backward_lstm_1/Tanh"
  attr {
    key: "T"
    value {
      type: DT_FLOAT
    }
  }
}
node {
  name: "bidirectional/backward_lstm_1/add_1"
  op: "AddV2"
  input: "bidirectional/backward_lstm_1/mul"
  input: "bidirectional/backward_lstm_1/mul_1"
  attr {
    key: "T"
    value {
      type: DT_FLOAT
    }
  }
}
node {
  name: "bidirectional/backward_lstm_1/Sigmoid_2"
  op: "Sigmoid"
  input: "bidirectional/backward_lstm_1/split:3"
  attr {
    key: "T"
    value {
      type: DT_FLOAT
    }
  }
}
node {
  name: "bidirectional/backward_lstm_1/Tanh_1"
  op: "Tanh"
  input: "bidirectional/backward_lstm_1/add_1"
  attr {
    key: "T"
    value {
      type: DT_FLOAT
    }
  }
}
node {
  name: "bidirectional/backward_lstm_1/mul_2"
  op: "Mul"
  input: "bidirectional/backward_lstm_1/Sigmoid_2"
  input: "bidirectional/backward_lstm_1/Tanh_1"
  attr {
    key: "T"
    value {
      type: DT_FLOAT
    }
  }
}
node {
  name: "bidirectional/backward_lstm_1/TensorArray_1"
  op: "TensorArrayV3"
  input: "bidirectional/backward_lstm_1/strided_slice_1"
  attr {
    key: "clear_after_read"
    value {
      b: true
    }
  }
  attr {
    key: "dtype"
    value {
      type: DT_FLOAT
    }
  }
  attr {
    key: "dynamic_size"
    value {
      b: false
    }
  }
  attr {
    key: "element_shape"
    value {
      shape {
        dim {
          size: -1
        }
        dim {
          size: 128
        }
      }
    }
  }
  attr {
    key: "identical_element_shapes"
    value {
      b: true
    }
  }
  attr {
    key: "tensor_array_name"
    value {
      s: "output_ta_0"
    }
  }
}
node {
  name: "bidirectional/backward_lstm_1/time"
  op: "Const"
  attr {
    key: "dtype"
    value {
      type: DT_INT32
    }
  }
  attr {
    key: "value"
    value {
      tensor {
        dtype: DT_INT32
        tensor_shape {
        }
        int_val: 0
      }
    }
  }
}
node {
  name: "bidirectional/backward_lstm_1/while/Enter"
  op: "Enter"
  input: "bidirectional/backward_lstm_1/time"
  attr {
    key: "T"
    value {
      type: DT_INT32
    }
  }
  attr {
    key: "frame_name"
    value {
      s: "bidirectional/backward_lstm_1/while/while_context"
    }
  }
  attr {
    key: "is_constant"
    value {
      b: false
    }
  }
  attr {
    key: "parallel_iterations"
    value {
      i: 32
    }
  }
}
node {
  name: "bidirectional/backward_lstm_1/while/Enter_1"
  op: "Enter"
  input: "bidirectional/backward_lstm_1/TensorArray_1:1"
  attr {
    key: "T"
    value {
      type: DT_FLOAT
    }
  }
  attr {
    key: "frame_name"
    value {
      s: "bidirectional/backward_lstm_1/while/while_context"
    }
  }
  attr {
    key: "is_constant"
    value {
      b: false
    }
  }
  attr {
    key: "parallel_iterations"
    value {
      i: 32
    }
  }
}
node {
  name: "bidirectional/backward_lstm_1/while/Enter_2"
  op: "Enter"
  input: "bidirectional/backward_lstm_1/zeros"
  attr {
    key: "T"
    value {
      type: DT_FLOAT
    }
  }
  attr {
    key: "frame_name"
    value {
      s: "bidirectional/backward_lstm_1/while/while_context"
    }
  }
  attr {
    key: "is_constant"
    value {
      b: false
    }
  }
  attr {
    key: "parallel_iterations"
    value {
      i: 32
    }
  }
}
node {
  name: "bidirectional/backward_lstm_1/while/Enter_3"
  op: "Enter"
  input: "bidirectional/backward_lstm_1/zeros_1"
  attr {
    key: "T"
    value {
      type: DT_FLOAT
    }
  }
  attr {
    key: "frame_name"
    value {
      s: "bidirectional/backward_lstm_1/while/while_context"
    }
  }
  attr {
    key: "is_constant"
    value {
      b: false
    }
  }
  attr {
    key: "parallel_iterations"
    value {
      i: 32
    }
  }
}
node {
  name: "bidirectional/backward_lstm_1/while/Merge"
  op: "Merge"
  input: "bidirectional/backward_lstm_1/while/Enter"
  input: "bidirectional/backward_lstm_1/while/NextIteration"
  attr {
    key: "N"
    value {
      i: 2
    }
  }
  attr {
    key: "T"
    value {
      type: DT_INT32
    }
  }
}
node {
  name: "bidirectional/backward_lstm_1/while/Merge_1"
  op: "Merge"
  input: "bidirectional/backward_lstm_1/while/Enter_1"
  input: "bidirectional/backward_lstm_1/while/NextIteration_1"
  attr {
    key: "N"
    value {
      i: 2
    }
  }
  attr {
    key: "T"
    value {
      type: DT_FLOAT
    }
  }
}
node {
  name: "bidirectional/backward_lstm_1/while/Merge_2"
  op: "Merge"
  input: "bidirectional/backward_lstm_1/while/Enter_2"
  input: "bidirectional/backward_lstm_1/while/NextIteration_2"
  attr {
    key: "N"
    value {
      i: 2
    }
  }
  attr {
    key: "T"
    value {
      type: DT_FLOAT
    }
  }
}
node {
  name: "bidirectional/backward_lstm_1/while/Merge_3"
  op: "Merge"
  input: "bidirectional/backward_lstm_1/while/Enter_3"
  input: "bidirectional/backward_lstm_1/while/NextIteration_3"
  attr {
    key: "N"
    value {
      i: 2
    }
  }
  attr {
    key: "T"
    value {
      type: DT_FLOAT
    }
  }
}
node {
  name: "bidirectional/backward_lstm_1/while/Less"
  op: "Less"
  input: "bidirectional/backward_lstm_1/while/Merge"
  input: "bidirectional/backward_lstm_1/while/Less/Enter"
  attr {
    key: "T"
    value {
      type: DT_INT32
    }
  }
}
node {
  name: "bidirectional/backward_lstm_1/while/Less/Enter"
  op: "Enter"
  input: "bidirectional/backward_lstm_1/strided_slice_1"
  attr {
    key: "T"
    value {
      type: DT_INT32
    }
  }
  attr {
    key: "frame_name"
    value {
      s: "bidirectional/backward_lstm_1/while/while_context"
    }
  }
  attr {
    key: "is_constant"
    value {
      b: true
    }
  }
  attr {
    key: "parallel_iterations"
    value {
      i: 32
    }
  }
}
node {
  name: "bidirectional/backward_lstm_1/while/LoopCond"
  op: "LoopCond"
  input: "bidirectional/backward_lstm_1/while/Less"
}
node {
  name: "bidirectional/backward_lstm_1/while/Switch"
  op: "Switch"
  input: "bidirectional/backward_lstm_1/while/Merge"
  input: "bidirectional/backward_lstm_1/while/LoopCond"
  attr {
    key: "T"
    value {
      type: DT_INT32
    }
  }
  attr {
    key: "_class"
    value {
      list {
        s: "loc:@bidirectional/backward_lstm_1/while/Merge"
      }
    }
  }
}
node {
  name: "bidirectional/backward_lstm_1/while/Switch_1"
  op: "Switch"
  input: "bidirectional/backward_lstm_1/while/Merge_1"
  input: "bidirectional/backward_lstm_1/while/LoopCond"
  attr {
    key: "T"
    value {
      type: DT_FLOAT
    }
  }
  attr {
    key: "_class"
    value {
      list {
        s: "loc:@bidirectional/backward_lstm_1/while/Merge_1"
      }
    }
  }
}
node {
  name: "bidirectional/backward_lstm_1/while/Switch_2"
  op: "Switch"
  input: "bidirectional/backward_lstm_1/while/Merge_2"
  input: "bidirectional/backward_lstm_1/while/LoopCond"
  attr {
    key: "T"
    value {
      type: DT_FLOAT
    }
  }
  attr {
    key: "_class"
    value {
      list {
        s: "loc:@bidirectional/backward_lstm_1/while/Merge_2"
      }
    }
  }
}
node {
  name: "bidirectional/backward_lstm_1/while/Switch_3"
  op: "Switch"
  input: "bidirectional/backward_lstm_1/while/Merge_3"
  input: "bidirectional/backward_lstm_1/while/LoopCond"
  attr {
    key: "T"
    value {
      type: DT_FLOAT
    }
  }
  attr {
    key: "_class"
    value {
      list {
        s: "loc:@bidirectional/backward_lstm_1/while/Merge_3"
      }
    }
  }
}
node {
  name: "bidirectional/backward_lstm_1/while/Identity"
  op: "Identity"
  input: "bidirectional/backward_lstm_1/while/Switch:1"
  attr {
    key: "T"
    value {
      type: DT_INT32
    }
  }
}
node {
  name: "bidirectional/backward_lstm_1/while/Identity_1"
  op: "Identity"
  input: "bidirectional/backward_lstm_1/while/Switch_1:1"
  attr {
    key: "T"
    value {
      type: DT_FLOAT
    }
  }
}
node {
  name: "bidirectional/backward_lstm_1/while/Identity_2"
  op: "Identity"
  input: "bidirectional/backward_lstm_1/while/Switch_2:1"
  attr {
    key: "T"
    value {
      type: DT_FLOAT
    }
  }
}
node {
  name: "bidirectional/backward_lstm_1/while/Identity_3"
  op: "Identity"
  input: "bidirectional/backward_lstm_1/while/Switch_3:1"
  attr {
    key: "T"
    value {
      type: DT_FLOAT
    }
  }
}
node {
  name: "bidirectional/backward_lstm_1/while/TensorArrayReadV3"
  op: "TensorArrayReadV3"
  input: "bidirectional/backward_lstm_1/while/TensorArrayReadV3/Enter"
  input: "bidirectional/backward_lstm_1/while/Identity"
  input: "bidirectional/backward_lstm_1/while/TensorArrayReadV3/Enter_1"
  attr {
    key: "dtype"
    value {
      type: DT_FLOAT
    }
  }
}
node {
  name: "bidirectional/backward_lstm_1/while/TensorArrayReadV3/Enter"
  op: "Enter"
  input: "bidirectional/backward_lstm_1/TensorArray"
  attr {
    key: "T"
    value {
      type: DT_RESOURCE
    }
  }
  attr {
    key: "frame_name"
    value {
      s: "bidirectional/backward_lstm_1/while/while_context"
    }
  }
  attr {
    key: "is_constant"
    value {
      b: true
    }
  }
  attr {
    key: "parallel_iterations"
    value {
      i: 32
    }
  }
}
node {
  name: "bidirectional/backward_lstm_1/while/TensorArrayReadV3/Enter_1"
  op: "Enter"
  input: "bidirectional/backward_lstm_1/TensorArrayUnstack/TensorArrayScatter/TensorArrayScatterV3"
  attr {
    key: "T"
    value {
      type: DT_FLOAT
    }
  }
  attr {
    key: "frame_name"
    value {
      s: "bidirectional/backward_lstm_1/while/while_context"
    }
  }
  attr {
    key: "is_constant"
    value {
      b: true
    }
  }
  attr {
    key: "parallel_iterations"
    value {
      i: 32
    }
  }
}
node {
  name: "bidirectional/backward_lstm_1/while/MatMul/ReadVariableOp"
  op: "ReadVariableOp"
  input: "bidirectional/backward_lstm_1/while/MatMul/ReadVariableOp/Enter"
  input: "^bidirectional/backward_lstm_1/while/Identity"
  attr {
    key: "dtype"
    value {
      type: DT_FLOAT
    }
  }
}
node {
  name: "bidirectional/backward_lstm_1/while/MatMul/ReadVariableOp/Enter"
  op: "Enter"
  input: "bidirectional/backward_lstm/kernel"
  attr {
    key: "T"
    value {
      type: DT_RESOURCE
    }
  }
  attr {
    key: "frame_name"
    value {
      s: "bidirectional/backward_lstm_1/while/while_context"
    }
  }
  attr {
    key: "is_constant"
    value {
      b: true
    }
  }
  attr {
    key: "parallel_iterations"
    value {
      i: 32
    }
  }
}
node {
  name: "bidirectional/backward_lstm_1/while/MatMul"
  op: "MatMul"
  input: "bidirectional/backward_lstm_1/while/TensorArrayReadV3"
  input: "bidirectional/backward_lstm_1/while/MatMul/ReadVariableOp"
  attr {
    key: "T"
    value {
      type: DT_FLOAT
    }
  }
  attr {
    key: "transpose_a"
    value {
      b: false
    }
  }
  attr {
    key: "transpose_b"
    value {
      b: false
    }
  }
}
node {
  name: "bidirectional/backward_lstm_1/while/MatMul_1/ReadVariableOp"
  op: "ReadVariableOp"
  input: "bidirectional/backward_lstm_1/while/MatMul_1/ReadVariableOp/Enter"
  input: "^bidirectional/backward_lstm_1/while/Identity"
  attr {
    key: "dtype"
    value {
      type: DT_FLOAT
    }
  }
}
node {
  name: "bidirectional/backward_lstm_1/while/MatMul_1/ReadVariableOp/Enter"
  op: "Enter"
  input: "bidirectional/backward_lstm/recurrent_kernel"
  attr {
    key: "T"
    value {
      type: DT_RESOURCE
    }
  }
  attr {
    key: "frame_name"
    value {
      s: "bidirectional/backward_lstm_1/while/while_context"
    }
  }
  attr {
    key: "is_constant"
    value {
      b: true
    }
  }
  attr {
    key: "parallel_iterations"
    value {
      i: 32
    }
  }
}
node {
  name: "bidirectional/backward_lstm_1/while/MatMul_1"
  op: "MatMul"
  input: "bidirectional/backward_lstm_1/while/Identity_2"
  input: "bidirectional/backward_lstm_1/while/MatMul_1/ReadVariableOp"
  attr {
    key: "T"
    value {
      type: DT_FLOAT
    }
  }
  attr {
    key: "transpose_a"
    value {
      b: false
    }
  }
  attr {
    key: "transpose_b"
    value {
      b: false
    }
  }
}
node {
  name: "bidirectional/backward_lstm_1/while/add"
  op: "AddV2"
  input: "bidirectional/backward_lstm_1/while/MatMul"
  input: "bidirectional/backward_lstm_1/while/MatMul_1"
  attr {
    key: "T"
    value {
      type: DT_FLOAT
    }
  }
}
node {
  name: "bidirectional/backward_lstm_1/while/BiasAdd/ReadVariableOp"
  op: "ReadVariableOp"
  input: "bidirectional/backward_lstm_1/while/BiasAdd/ReadVariableOp/Enter"
  input: "^bidirectional/backward_lstm_1/while/Identity"
  attr {
    key: "dtype"
    value {
      type: DT_FLOAT
    }
  }
}
node {
  name: "bidirectional/backward_lstm_1/while/BiasAdd/ReadVariableOp/Enter"
  op: "Enter"
  input: "bidirectional/backward_lstm/bias"
  attr {
    key: "T"
    value {
      type: DT_RESOURCE
    }
  }
  attr {
    key: "frame_name"
    value {
      s: "bidirectional/backward_lstm_1/while/while_context"
    }
  }
  attr {
    key: "is_constant"
    value {
      b: true
    }
  }
  attr {
    key: "parallel_iterations"
    value {
      i: 32
    }
  }
}
node {
  name: "bidirectional/backward_lstm_1/while/BiasAdd"
  op: "BiasAdd"
  input: "bidirectional/backward_lstm_1/while/add"
  input: "bidirectional/backward_lstm_1/while/BiasAdd/ReadVariableOp"
  attr {
    key: "T"
    value {
      type: DT_FLOAT
    }
  }
  attr {
    key: "data_format"
    value {
      s: "NHWC"
    }
  }
}
node {
  name: "bidirectional/backward_lstm_1/while/Const"
  op: "Const"
  input: "^bidirectional/backward_lstm_1/while/Identity"
  attr {
    key: "dtype"
    value {
      type: DT_INT32
    }
  }
  attr {
    key: "value"
    value {
      tensor {
        dtype: DT_INT32
        tensor_shape {
        }
        int_val: 4
      }
    }
  }
}
node {
  name: "bidirectional/backward_lstm_1/while/split/split_dim"
  op: "Const"
  input: "^bidirectional/backward_lstm_1/while/Identity"
  attr {
    key: "dtype"
    value {
      type: DT_INT32
    }
  }
  attr {
    key: "value"
    value {
      tensor {
        dtype: DT_INT32
        tensor_shape {
        }
        int_val: 1
      }
    }
  }
}
node {
  name: "bidirectional/backward_lstm_1/while/split"
  op: "Split"
  input: "bidirectional/backward_lstm_1/while/split/split_dim"
  input: "bidirectional/backward_lstm_1/while/BiasAdd"
  attr {
    key: "T"
    value {
      type: DT_FLOAT
    }
  }
  attr {
    key: "num_split"
    value {
      i: 4
    }
  }
}
node {
  name: "bidirectional/backward_lstm_1/while/Sigmoid"
  op: "Sigmoid"
  input: "bidirectional/backward_lstm_1/while/split"
  attr {
    key: "T"
    value {
      type: DT_FLOAT
    }
  }
}
node {
  name: "bidirectional/backward_lstm_1/while/Sigmoid_1"
  op: "Sigmoid"
  input: "bidirectional/backward_lstm_1/while/split:1"
  attr {
    key: "T"
    value {
      type: DT_FLOAT
    }
  }
}
node {
  name: "bidirectional/backward_lstm_1/while/mul"
  op: "Mul"
  input: "bidirectional/backward_lstm_1/while/Sigmoid_1"
  input: "bidirectional/backward_lstm_1/while/Identity_3"
  attr {
    key: "T"
    value {
      type: DT_FLOAT
    }
  }
}
node {
  name: "bidirectional/backward_lstm_1/while/Tanh"
  op: "Tanh"
  input: "bidirectional/backward_lstm_1/while/split:2"
  attr {
    key: "T"
    value {
      type: DT_FLOAT
    }
  }
}
node {
  name: "bidirectional/backward_lstm_1/while/mul_1"
  op: "Mul"
  input: "bidirectional/backward_lstm_1/while/Sigmoid"
  input: "bidirectional/backward_lstm_1/while/Tanh"
  attr {
    key: "T"
    value {
      type: DT_FLOAT
    }
  }
}
node {
  name: "bidirectional/backward_lstm_1/while/add_1"
  op: "AddV2"
  input: "bidirectional/backward_lstm_1/while/mul"
  input: "bidirectional/backward_lstm_1/while/mul_1"
  attr {
    key: "T"
    value {
      type: DT_FLOAT
    }
  }
}
node {
  name: "bidirectional/backward_lstm_1/while/Sigmoid_2"
  op: "Sigmoid"
  input: "bidirectional/backward_lstm_1/while/split:3"
  attr {
    key: "T"
    value {
      type: DT_FLOAT
    }
  }
}
node {
  name: "bidirectional/backward_lstm_1/while/Tanh_1"
  op: "Tanh"
  input: "bidirectional/backward_lstm_1/while/add_1"
  attr {
    key: "T"
    value {
      type: DT_FLOAT
    }
  }
}
node {
  name: "bidirectional/backward_lstm_1/while/mul_2"
  op: "Mul"
  input: "bidirectional/backward_lstm_1/while/Sigmoid_2"
  input: "bidirectional/backward_lstm_1/while/Tanh_1"
  attr {
    key: "T"
    value {
      type: DT_FLOAT
    }
  }
}
node {
  name: "bidirectional/backward_lstm_1/while/TensorArrayWrite/TensorArrayWriteV3"
  op: "TensorArrayWriteV3"
  input: "bidirectional/backward_lstm_1/while/TensorArrayWrite/TensorArrayWriteV3/Enter"
  input: "bidirectional/backward_lstm_1/while/Identity"
  input: "bidirectional/backward_lstm_1/while/mul_2"
  input: "bidirectional/backward_lstm_1/while/Identity_1"
  attr {
    key: "T"
    value {
      type: DT_FLOAT
    }
  }
  attr {
    key: "_class"
    value {
      list {
        s: "loc:@bidirectional/backward_lstm_1/while/mul_2"
      }
    }
  }
}
node {
  name: "bidirectional/backward_lstm_1/while/TensorArrayWrite/TensorArrayWriteV3/Enter"
  op: "Enter"
  input: "bidirectional/backward_lstm_1/TensorArray_1"
  attr {
    key: "T"
    value {
      type: DT_RESOURCE
    }
  }
  attr {
    key: "_class"
    value {
      list {
        s: "loc:@bidirectional/backward_lstm_1/while/mul_2"
      }
    }
  }
  attr {
    key: "frame_name"
    value {
      s: "bidirectional/backward_lstm_1/while/while_context"
    }
  }
  attr {
    key: "is_constant"
    value {
      b: true
    }
  }
  attr {
    key: "parallel_iterations"
    value {
      i: 32
    }
  }
}
node {
  name: "bidirectional/backward_lstm_1/while/add_2/y"
  op: "Const"
  input: "^bidirectional/backward_lstm_1/while/Identity"
  attr {
    key: "dtype"
    value {
      type: DT_INT32
    }
  }
  attr {
    key: "value"
    value {
      tensor {
        dtype: DT_INT32
        tensor_shape {
        }
        int_val: 1
      }
    }
  }
}
node {
  name: "bidirectional/backward_lstm_1/while/add_2"
  op: "AddV2"
  input: "bidirectional/backward_lstm_1/while/Identity"
  input: "bidirectional/backward_lstm_1/while/add_2/y"
  attr {
    key: "T"
    value {
      type: DT_INT32
    }
  }
}
node {
  name: "bidirectional/backward_lstm_1/while/NextIteration"
  op: "NextIteration"
  input: "bidirectional/backward_lstm_1/while/add_2"
  attr {
    key: "T"
    value {
      type: DT_INT32
    }
  }
}
node {
  name: "bidirectional/backward_lstm_1/while/NextIteration_1"
  op: "NextIteration"
  input: "bidirectional/backward_lstm_1/while/TensorArrayWrite/TensorArrayWriteV3"
  attr {
    key: "T"
    value {
      type: DT_FLOAT
    }
  }
}
node {
  name: "bidirectional/backward_lstm_1/while/NextIteration_2"
  op: "NextIteration"
  input: "bidirectional/backward_lstm_1/while/mul_2"
  attr {
    key: "T"
    value {
      type: DT_FLOAT
    }
  }
}
node {
  name: "bidirectional/backward_lstm_1/while/NextIteration_3"
  op: "NextIteration"
  input: "bidirectional/backward_lstm_1/while/add_1"
  attr {
    key: "T"
    value {
      type: DT_FLOAT
    }
  }
}
node {
  name: "bidirectional/backward_lstm_1/while/Exit"
  op: "Exit"
  input: "bidirectional/backward_lstm_1/while/Switch"
  attr {
    key: "T"
    value {
      type: DT_INT32
    }
  }
}
node {
  name: "bidirectional/backward_lstm_1/while/Exit_1"
  op: "Exit"
  input: "bidirectional/backward_lstm_1/while/Switch_1"
  attr {
    key: "T"
    value {
      type: DT_FLOAT
    }
  }
}
node {
  name: "bidirectional/backward_lstm_1/while/Exit_2"
  op: "Exit"
  input: "bidirectional/backward_lstm_1/while/Switch_2"
  attr {
    key: "T"
    value {
      type: DT_FLOAT
    }
  }
}
node {
  name: "bidirectional/backward_lstm_1/while/Exit_3"
  op: "Exit"
  input: "bidirectional/backward_lstm_1/while/Switch_3"
  attr {
    key: "T"
    value {
      type: DT_FLOAT
    }
  }
}
node {
  name: "bidirectional/backward_lstm_1/TensorArrayStack/TensorArraySizeV3"
  op: "TensorArraySizeV3"
  input: "bidirectional/backward_lstm_1/TensorArray_1"
  input: "bidirectional/backward_lstm_1/while/Exit_1"
  attr {
    key: "_class"
    value {
      list {
        s: "loc:@bidirectional/backward_lstm_1/TensorArray_1"
      }
    }
  }
}
node {
  name: "bidirectional/backward_lstm_1/TensorArrayStack/range/start"
  op: "Const"
  attr {
    key: "_class"
    value {
      list {
        s: "loc:@bidirectional/backward_lstm_1/TensorArray_1"
      }
    }
  }
  attr {
    key: "dtype"
    value {
      type: DT_INT32
    }
  }
  attr {
    key: "value"
    value {
      tensor {
        dtype: DT_INT32
        tensor_shape {
        }
        int_val: 0
      }
    }
  }
}
node {
  name: "bidirectional/backward_lstm_1/TensorArrayStack/range/delta"
  op: "Const"
  attr {
    key: "_class"
    value {
      list {
        s: "loc:@bidirectional/backward_lstm_1/TensorArray_1"
      }
    }
  }
  attr {
    key: "dtype"
    value {
      type: DT_INT32
    }
  }
  attr {
    key: "value"
    value {
      tensor {
        dtype: DT_INT32
        tensor_shape {
        }
        int_val: 1
      }
    }
  }
}
node {
  name: "bidirectional/backward_lstm_1/TensorArrayStack/range"
  op: "Range"
  input: "bidirectional/backward_lstm_1/TensorArrayStack/range/start"
  input: "bidirectional/backward_lstm_1/TensorArrayStack/TensorArraySizeV3"
  input: "bidirectional/backward_lstm_1/TensorArrayStack/range/delta"
  attr {
    key: "Tidx"
    value {
      type: DT_INT32
    }
  }
  attr {
    key: "_class"
    value {
      list {
        s: "loc:@bidirectional/backward_lstm_1/TensorArray_1"
      }
    }
  }
}
node {
  name: "bidirectional/backward_lstm_1/TensorArrayStack/TensorArrayGatherV3"
  op: "TensorArrayGatherV3"
  input: "bidirectional/backward_lstm_1/TensorArray_1"
  input: "bidirectional/backward_lstm_1/TensorArrayStack/range"
  input: "bidirectional/backward_lstm_1/while/Exit_1"
  attr {
    key: "_class"
    value {
      list {
        s: "loc:@bidirectional/backward_lstm_1/TensorArray_1"
      }
    }
  }
  attr {
    key: "dtype"
    value {
      type: DT_FLOAT
    }
  }
  attr {
    key: "element_shape"
    value {
      shape {
        dim {
          size: -1
        }
        dim {
          size: 128
        }
      }
    }
  }
}
node {
  name: "bidirectional/backward_lstm_1/strided_slice_3/stack"
  op: "Const"
  attr {
    key: "dtype"
    value {
      type: DT_INT32
    }
  }
  attr {
    key: "value"
    value {
      tensor {
        dtype: DT_INT32
        tensor_shape {
          dim {
            size: 1
          }
        }
        int_val: -1
      }
    }
  }
}
node {
  name: "bidirectional/backward_lstm_1/strided_slice_3/stack_1"
  op: "Const"
  attr {
    key: "dtype"
    value {
      type: DT_INT32
    }
  }
  attr {
    key: "value"
    value {
      tensor {
        dtype: DT_INT32
        tensor_shape {
          dim {
            size: 1
          }
        }
        int_val: 0
      }
    }
  }
}
node {
  name: "bidirectional/backward_lstm_1/strided_slice_3/stack_2"
  op: "Const"
  attr {
    key: "dtype"
    value {
      type: DT_INT32
    }
  }
  attr {
    key: "value"
    value {
      tensor {
        dtype: DT_INT32
        tensor_shape {
          dim {
            size: 1
          }
        }
        int_val: 1
      }
    }
  }
}
node {
  name: "bidirectional/backward_lstm_1/strided_slice_3"
  op: "StridedSlice"
  input: "bidirectional/backward_lstm_1/TensorArrayStack/TensorArrayGatherV3"
  input: "bidirectional/backward_lstm_1/strided_slice_3/stack"
  input: "bidirectional/backward_lstm_1/strided_slice_3/stack_1"
  input: "bidirectional/backward_lstm_1/strided_slice_3/stack_2"
  attr {
    key: "Index"
    value {
      type: DT_INT32
    }
  }
  attr {
    key: "T"
    value {
      type: DT_FLOAT
    }
  }
  attr {
    key: "begin_mask"
    value {
      i: 0
    }
  }
  attr {
    key: "ellipsis_mask"
    value {
      i: 0
    }
  }
  attr {
    key: "end_mask"
    value {
      i: 0
    }
  }
  attr {
    key: "new_axis_mask"
    value {
      i: 0
    }
  }
  attr {
    key: "shrink_axis_mask"
    value {
      i: 1
    }
  }
}
node {
  name: "bidirectional/backward_lstm_1/transpose_1/perm"
  op: "Const"
  attr {
    key: "dtype"
    value {
      type: DT_INT32
    }
  }
  attr {
    key: "value"
    value {
      tensor {
        dtype: DT_INT32
        tensor_shape {
          dim {
            size: 3
          }
        }
        tensor_content: "\001\000\000\000\000\000\000\000\002\000\000\000"
      }
    }
  }
}
node {
  name: "bidirectional/backward_lstm_1/transpose_1"
  op: "Transpose"
  input: "bidirectional/backward_lstm_1/TensorArrayStack/TensorArrayGatherV3"
  input: "bidirectional/backward_lstm_1/transpose_1/perm"
  attr {
    key: "T"
    value {
      type: DT_FLOAT
    }
  }
  attr {
    key: "Tperm"
    value {
      type: DT_INT32
    }
  }
}
node {
  name: "bidirectional/ReverseV2/axis"
  op: "Const"
  attr {
    key: "dtype"
    value {
      type: DT_INT32
    }
  }
  attr {
    key: "value"
    value {
      tensor {
        dtype: DT_INT32
        tensor_shape {
          dim {
            size: 1
          }
        }
        int_val: 1
      }
    }
  }
}
node {
  name: "bidirectional/ReverseV2"
  op: "ReverseV2"
  input: "bidirectional/backward_lstm_1/transpose_1"
  input: "bidirectional/ReverseV2/axis"
  attr {
    key: "T"
    value {
      type: DT_FLOAT
    }
  }
  attr {
    key: "Tidx"
    value {
      type: DT_INT32
    }
  }
}
node {
  name: "bidirectional/concat/axis"
  op: "Const"
  attr {
    key: "dtype"
    value {
      type: DT_INT32
    }
  }
  attr {
    key: "value"
    value {
      tensor {
        dtype: DT_INT32
        tensor_shape {
        }
        int_val: 2
      }
    }
  }
}
node {
  name: "bidirectional/concat"
  op: "ConcatV2"
  input: "bidirectional/forward_lstm_1/transpose_1"
  input: "bidirectional/ReverseV2"
  input: "bidirectional/concat/axis"
  attr {
    key: "N"
    value {
      i: 2
    }
  }
  attr {
    key: "T"
    value {
      type: DT_FLOAT
    }
  }
  attr {
    key: "Tidx"
    value {
      type: DT_INT32
    }
  }
}
node {
  name: "global_max_pooling1d/Max/reduction_indices"
  op: "Const"
  attr {
    key: "dtype"
    value {
      type: DT_INT32
    }
  }
  attr {
    key: "value"
    value {
      tensor {
        dtype: DT_INT32
        tensor_shape {
        }
        int_val: 1
      }
    }
  }
}
node {
  name: "global_max_pooling1d/Max"
  op: "Max"
  input: "bidirectional/concat"
  input: "global_max_pooling1d/Max/reduction_indices"
  attr {
    key: "T"
    value {
      type: DT_FLOAT
    }
  }
  attr {
    key: "Tidx"
    value {
      type: DT_INT32
    }
  }
  attr {
    key: "keep_dims"
    value {
      b: false
    }
  }
}
node {
  name: "dense/kernel/Initializer/random_uniform/shape"
  op: "Const"
  attr {
    key: "_class"
    value {
      list {
        s: "loc:@dense/kernel"
      }
    }
  }
  attr {
    key: "dtype"
    value {
      type: DT_INT32
    }
  }
  attr {
    key: "value"
    value {
      tensor {
        dtype: DT_INT32
        tensor_shape {
          dim {
            size: 2
          }
        }
        tensor_content: "\000\001\000\000\001\000\000\000"
      }
    }
  }
}
node {
  name: "dense/kernel/Initializer/random_uniform/min"
  op: "Const"
  attr {
    key: "_class"
    value {
      list {
        s: "loc:@dense/kernel"
      }
    }
  }
  attr {
    key: "dtype"
    value {
      type: DT_FLOAT
    }
  }
  attr {
    key: "value"
    value {
      tensor {
        dtype: DT_FLOAT
        tensor_shape {
        }
        float_val: -0.1527949720621109
      }
    }
  }
}
node {
  name: "dense/kernel/Initializer/random_uniform/max"
  op: "Const"
  attr {
    key: "_class"
    value {
      list {
        s: "loc:@dense/kernel"
      }
    }
  }
  attr {
    key: "dtype"
    value {
      type: DT_FLOAT
    }
  }
  attr {
    key: "value"
    value {
      tensor {
        dtype: DT_FLOAT
        tensor_shape {
        }
        float_val: 0.1527949720621109
      }
    }
  }
}
node {
  name: "dense/kernel/Initializer/random_uniform/RandomUniform"
  op: "RandomUniform"
  input: "dense/kernel/Initializer/random_uniform/shape"
  attr {
    key: "T"
    value {
      type: DT_INT32
    }
  }
  attr {
    key: "_class"
    value {
      list {
        s: "loc:@dense/kernel"
      }
    }
  }
  attr {
    key: "dtype"
    value {
      type: DT_FLOAT
    }
  }
  attr {
    key: "seed"
    value {
      i: 0
    }
  }
  attr {
    key: "seed2"
    value {
      i: 0
    }
  }
}
node {
  name: "dense/kernel/Initializer/random_uniform/sub"
  op: "Sub"
  input: "dense/kernel/Initializer/random_uniform/max"
  input: "dense/kernel/Initializer/random_uniform/min"
  attr {
    key: "T"
    value {
      type: DT_FLOAT
    }
  }
  attr {
    key: "_class"
    value {
      list {
        s: "loc:@dense/kernel"
      }
    }
  }
}
node {
  name: "dense/kernel/Initializer/random_uniform/mul"
  op: "Mul"
  input: "dense/kernel/Initializer/random_uniform/RandomUniform"
  input: "dense/kernel/Initializer/random_uniform/sub"
  attr {
    key: "T"
    value {
      type: DT_FLOAT
    }
  }
  attr {
    key: "_class"
    value {
      list {
        s: "loc:@dense/kernel"
      }
    }
  }
}
node {
  name: "dense/kernel/Initializer/random_uniform"
  op: "Add"
  input: "dense/kernel/Initializer/random_uniform/mul"
  input: "dense/kernel/Initializer/random_uniform/min"
  attr {
    key: "T"
    value {
      type: DT_FLOAT
    }
  }
  attr {
    key: "_class"
    value {
      list {
        s: "loc:@dense/kernel"
      }
    }
  }
}
node {
  name: "dense/kernel"
  op: "VarHandleOp"
  attr {
    key: "_class"
    value {
      list {
        s: "loc:@dense/kernel"
      }
    }
  }
  attr {
    key: "container"
    value {
      s: ""
    }
  }
  attr {
    key: "dtype"
    value {
      type: DT_FLOAT
    }
  }
  attr {
    key: "shape"
    value {
      shape {
        dim {
          size: 256
        }
        dim {
          size: 1
        }
      }
    }
  }
  attr {
    key: "shared_name"
    value {
      s: "dense/kernel"
    }
  }
}
node {
  name: "dense/kernel/IsInitialized/VarIsInitializedOp"
  op: "VarIsInitializedOp"
  input: "dense/kernel"
}
node {
  name: "dense/kernel/Assign"
  op: "AssignVariableOp"
  input: "dense/kernel"
  input: "dense/kernel/Initializer/random_uniform"
  attr {
    key: "dtype"
    value {
      type: DT_FLOAT
    }
  }
}
node {
  name: "dense/kernel/Read/ReadVariableOp"
  op: "ReadVariableOp"
  input: "dense/kernel"
  attr {
    key: "dtype"
    value {
      type: DT_FLOAT
    }
  }
}
node {
  name: "dense/bias/Initializer/zeros"
  op: "Const"
  attr {
    key: "_class"
    value {
      list {
        s: "loc:@dense/bias"
      }
    }
  }
  attr {
    key: "dtype"
    value {
      type: DT_FLOAT
    }
  }
  attr {
    key: "value"
    value {
      tensor {
        dtype: DT_FLOAT
        tensor_shape {
          dim {
            size: 1
          }
        }
        float_val: 0.0
      }
    }
  }
}
node {
  name: "dense/bias"
  op: "VarHandleOp"
  attr {
    key: "_class"
    value {
      list {
        s: "loc:@dense/bias"
      }
    }
  }
  attr {
    key: "container"
    value {
      s: ""
    }
  }
  attr {
    key: "dtype"
    value {
      type: DT_FLOAT
    }
  }
  attr {
    key: "shape"
    value {
      shape {
        dim {
          size: 1
        }
      }
    }
  }
  attr {
    key: "shared_name"
    value {
      s: "dense/bias"
    }
  }
}
node {
  name: "dense/bias/IsInitialized/VarIsInitializedOp"
  op: "VarIsInitializedOp"
  input: "dense/bias"
}
node {
  name: "dense/bias/Assign"
  op: "AssignVariableOp"
  input: "dense/bias"
  input: "dense/bias/Initializer/zeros"
  attr {
    key: "dtype"
    value {
      type: DT_FLOAT
    }
  }
}
node {
  name: "dense/bias/Read/ReadVariableOp"
  op: "ReadVariableOp"
  input: "dense/bias"
  attr {
    key: "dtype"
    value {
      type: DT_FLOAT
    }
  }
}
node {
  name: "dense/MatMul/ReadVariableOp"
  op: "ReadVariableOp"
  input: "dense/kernel"
  attr {
    key: "dtype"
    value {
      type: DT_FLOAT
    }
  }
}
node {
  name: "dense/MatMul"
  op: "MatMul"
  input: "global_max_pooling1d/Max"
  input: "dense/MatMul/ReadVariableOp"
  attr {
    key: "T"
    value {
      type: DT_FLOAT
    }
  }
  attr {
    key: "transpose_a"
    value {
      b: false
    }
  }
  attr {
    key: "transpose_b"
    value {
      b: false
    }
  }
}
node {
  name: "dense/BiasAdd/ReadVariableOp"
  op: "ReadVariableOp"
  input: "dense/bias"
  attr {
    key: "dtype"
    value {
      type: DT_FLOAT
    }
  }
}
node {
  name: "dense/BiasAdd"
  op: "BiasAdd"
  input: "dense/MatMul"
  input: "dense/BiasAdd/ReadVariableOp"
  attr {
    key: "T"
    value {
      type: DT_FLOAT
    }
  }
  attr {
    key: "data_format"
    value {
      s: "NHWC"
    }
  }
}
node {
  name: "dense/Sigmoid"
  op: "Sigmoid"
  input: "dense/BiasAdd"
  attr {
    key: "T"
    value {
      type: DT_FLOAT
    }
  }
}
node {
  name: "Placeholder"
  op: "Placeholder"
  attr {
    key: "dtype"
    value {
      type: DT_FLOAT
    }
  }
  attr {
    key: "shape"
    value {
      shape {
        dim {
          size: -1
        }
        dim {
          size: -1
        }
      }
    }
  }
}
node {
  name: "AssignVariableOp"
  op: "AssignVariableOp"
  input: "bidirectional/forward_lstm/kernel"
  input: "Placeholder"
  attr {
    key: "dtype"
    value {
      type: DT_FLOAT
    }
  }
}
node {
  name: "ReadVariableOp"
  op: "ReadVariableOp"
  input: "bidirectional/forward_lstm/kernel"
  input: "^AssignVariableOp"
  attr {
    key: "dtype"
    value {
      type: DT_FLOAT
    }
  }
}
node {
  name: "Placeholder_1"
  op: "Placeholder"
  attr {
    key: "dtype"
    value {
      type: DT_FLOAT
    }
  }
  attr {
    key: "shape"
    value {
      shape {
        dim {
          size: -1
        }
        dim {
          size: -1
        }
      }
    }
  }
}
node {
  name: "AssignVariableOp_1"
  op: "AssignVariableOp"
  input: "bidirectional/forward_lstm/recurrent_kernel"
  input: "Placeholder_1"
  attr {
    key: "dtype"
    value {
      type: DT_FLOAT
    }
  }
}
node {
  name: "ReadVariableOp_1"
  op: "ReadVariableOp"
  input: "bidirectional/forward_lstm/recurrent_kernel"
  input: "^AssignVariableOp_1"
  attr {
    key: "dtype"
    value {
      type: DT_FLOAT
    }
  }
}
node {
  name: "Placeholder_2"
  op: "Placeholder"
  attr {
    key: "dtype"
    value {
      type: DT_FLOAT
    }
  }
  attr {
    key: "shape"
    value {
      shape {
        dim {
          size: -1
        }
      }
    }
  }
}
node {
  name: "AssignVariableOp_2"
  op: "AssignVariableOp"
  input: "bidirectional/forward_lstm/bias"
  input: "Placeholder_2"
  attr {
    key: "dtype"
    value {
      type: DT_FLOAT
    }
  }
}
node {
  name: "ReadVariableOp_2"
  op: "ReadVariableOp"
  input: "bidirectional/forward_lstm/bias"
  input: "^AssignVariableOp_2"
  attr {
    key: "dtype"
    value {
      type: DT_FLOAT
    }
  }
}
node {
  name: "Placeholder_3"
  op: "Placeholder"
  attr {
    key: "dtype"
    value {
      type: DT_FLOAT
    }
  }
  attr {
    key: "shape"
    value {
      shape {
        dim {
          size: -1
        }
        dim {
          size: -1
        }
      }
    }
  }
}
node {
  name: "AssignVariableOp_3"
  op: "AssignVariableOp"
  input: "bidirectional/backward_lstm/kernel"
  input: "Placeholder_3"
  attr {
    key: "dtype"
    value {
      type: DT_FLOAT
    }
  }
}
node {
  name: "ReadVariableOp_3"
  op: "ReadVariableOp"
  input: "bidirectional/backward_lstm/kernel"
  input: "^AssignVariableOp_3"
  attr {
    key: "dtype"
    value {
      type: DT_FLOAT
    }
  }
}
node {
  name: "Placeholder_4"
  op: "Placeholder"
  attr {
    key: "dtype"
    value {
      type: DT_FLOAT
    }
  }
  attr {
    key: "shape"
    value {
      shape {
        dim {
          size: -1
        }
        dim {
          size: -1
        }
      }
    }
  }
}
node {
  name: "AssignVariableOp_4"
  op: "AssignVariableOp"
  input: "bidirectional/backward_lstm/recurrent_kernel"
  input: "Placeholder_4"
  attr {
    key: "dtype"
    value {
      type: DT_FLOAT
    }
  }
}
node {
  name: "ReadVariableOp_4"
  op: "ReadVariableOp"
  input: "bidirectional/backward_lstm/recurrent_kernel"
  input: "^AssignVariableOp_4"
  attr {
    key: "dtype"
    value {
      type: DT_FLOAT
    }
  }
}
node {
  name: "Placeholder_5"
  op: "Placeholder"
  attr {
    key: "dtype"
    value {
      type: DT_FLOAT
    }
  }
  attr {
    key: "shape"
    value {
      shape {
        dim {
          size: -1
        }
      }
    }
  }
}
node {
  name: "AssignVariableOp_5"
  op: "AssignVariableOp"
  input: "bidirectional/backward_lstm/bias"
  input: "Placeholder_5"
  attr {
    key: "dtype"
    value {
      type: DT_FLOAT
    }
  }
}
node {
  name: "ReadVariableOp_5"
  op: "ReadVariableOp"
  input: "bidirectional/backward_lstm/bias"
  input: "^AssignVariableOp_5"
  attr {
    key: "dtype"
    value {
      type: DT_FLOAT
    }
  }
}
node {
  name: "Placeholder_6"
  op: "Placeholder"
  attr {
    key: "dtype"
    value {
      type: DT_FLOAT
    }
  }
  attr {
    key: "shape"
    value {
      shape {
        dim {
          size: -1
        }
        dim {
          size: -1
        }
      }
    }
  }
}
node {
  name: "AssignVariableOp_6"
  op: "AssignVariableOp"
  input: "dense/kernel"
  input: "Placeholder_6"
  attr {
    key: "dtype"
    value {
      type: DT_FLOAT
    }
  }
}
node {
  name: "ReadVariableOp_6"
  op: "ReadVariableOp"
  input: "dense/kernel"
  input: "^AssignVariableOp_6"
  attr {
    key: "dtype"
    value {
      type: DT_FLOAT
    }
  }
}
node {
  name: "Placeholder_7"
  op: "Placeholder"
  attr {
    key: "dtype"
    value {
      type: DT_FLOAT
    }
  }
  attr {
    key: "shape"
    value {
      shape {
        dim {
          size: -1
        }
      }
    }
  }
}
node {
  name: "AssignVariableOp_7"
  op: "AssignVariableOp"
  input: "dense/bias"
  input: "Placeholder_7"
  attr {
    key: "dtype"
    value {
      type: DT_FLOAT
    }
  }
}
node {
  name: "ReadVariableOp_7"
  op: "ReadVariableOp"
  input: "dense/bias"
  input: "^AssignVariableOp_7"
  attr {
    key: "dtype"
    value {
      type: DT_FLOAT
    }
  }
}
node {
  name: "VarIsInitializedOp"
  op: "VarIsInitializedOp"
  input: "bidirectional/forward_lstm/kernel"
}
node {
  name: "VarIsInitializedOp_1"
  op: "VarIsInitializedOp"
  input: "bidirectional/forward_lstm/bias"
}
node {
  name: "VarIsInitializedOp_2"
  op: "VarIsInitializedOp"
  input: "bidirectional/backward_lstm/recurrent_kernel"
}
node {
  name: "VarIsInitializedOp_3"
  op: "VarIsInitializedOp"
  input: "bidirectional/forward_lstm/recurrent_kernel"
}
node {
  name: "VarIsInitializedOp_4"
  op: "VarIsInitializedOp"
  input: "bidirectional/backward_lstm/kernel"
}
node {
  name: "VarIsInitializedOp_5"
  op: "VarIsInitializedOp"
  input: "bidirectional/backward_lstm/bias"
}
node {
  name: "VarIsInitializedOp_6"
  op: "VarIsInitializedOp"
  input: "dense/kernel"
}
node {
  name: "VarIsInitializedOp_7"
  op: "VarIsInitializedOp"
  input: "dense/bias"
}
node {
  name: "init"
  op: "NoOp"
  input: "^bidirectional/backward_lstm/bias/Assign"
  input: "^bidirectional/backward_lstm/kernel/Assign"
  input: "^bidirectional/backward_lstm/recurrent_kernel/Assign"
  input: "^bidirectional/forward_lstm/bias/Assign"
  input: "^bidirectional/forward_lstm/kernel/Assign"
  input: "^bidirectional/forward_lstm/recurrent_kernel/Assign"
  input: "^dense/bias/Assign"
  input: "^dense/kernel/Assign"
}
node {
  name: "input_1_1"
  op: "Placeholder"
  attr {
    key: "dtype"
    value {
      type: DT_FLOAT
    }
  }
  attr {
    key: "shape"
    value {
      shape {
        dim {
          size: -1
        }
        dim {
          size: 126
        }
        dim {
          size: 40
        }
      }
    }
  }
}
node {
  name: "bidirectional_1/forward_lstm/kernel/Initializer/random_uniform/shape"
  op: "Const"
  attr {
    key: "_class"
    value {
      list {
        s: "loc:@bidirectional_1/forward_lstm/kernel"
      }
    }
  }
  attr {
    key: "dtype"
    value {
      type: DT_INT32
    }
  }
  attr {
    key: "value"
    value {
      tensor {
        dtype: DT_INT32
        tensor_shape {
          dim {
            size: 2
          }
        }
        tensor_content: "(\000\000\000\000\002\000\000"
      }
    }
  }
}
node {
  name: "bidirectional_1/forward_lstm/kernel/Initializer/random_uniform/min"
  op: "Const"
  attr {
    key: "_class"
    value {
      list {
        s: "loc:@bidirectional_1/forward_lstm/kernel"
      }
    }
  }
  attr {
    key: "dtype"
    value {
      type: DT_FLOAT
    }
  }
  attr {
    key: "value"
    value {
      tensor {
        dtype: DT_FLOAT
        tensor_shape {
        }
        float_val: -0.10425720363855362
      }
    }
  }
}
node {
  name: "bidirectional_1/forward_lstm/kernel/Initializer/random_uniform/max"
  op: "Const"
  attr {
    key: "_class"
    value {
      list {
        s: "loc:@bidirectional_1/forward_lstm/kernel"
      }
    }
  }
  attr {
    key: "dtype"
    value {
      type: DT_FLOAT
    }
  }
  attr {
    key: "value"
    value {
      tensor {
        dtype: DT_FLOAT
        tensor_shape {
        }
        float_val: 0.10425720363855362
      }
    }
  }
}
node {
  name: "bidirectional_1/forward_lstm/kernel/Initializer/random_uniform/RandomUniform"
  op: "RandomUniform"
  input: "bidirectional_1/forward_lstm/kernel/Initializer/random_uniform/shape"
  attr {
    key: "T"
    value {
      type: DT_INT32
    }
  }
  attr {
    key: "_class"
    value {
      list {
        s: "loc:@bidirectional_1/forward_lstm/kernel"
      }
    }
  }
  attr {
    key: "dtype"
    value {
      type: DT_FLOAT
    }
  }
  attr {
    key: "seed"
    value {
      i: 0
    }
  }
  attr {
    key: "seed2"
    value {
      i: 0
    }
  }
}
node {
  name: "bidirectional_1/forward_lstm/kernel/Initializer/random_uniform/sub"
  op: "Sub"
  input: "bidirectional_1/forward_lstm/kernel/Initializer/random_uniform/max"
  input: "bidirectional_1/forward_lstm/kernel/Initializer/random_uniform/min"
  attr {
    key: "T"
    value {
      type: DT_FLOAT
    }
  }
  attr {
    key: "_class"
    value {
      list {
        s: "loc:@bidirectional_1/forward_lstm/kernel"
      }
    }
  }
}
node {
  name: "bidirectional_1/forward_lstm/kernel/Initializer/random_uniform/mul"
  op: "Mul"
  input: "bidirectional_1/forward_lstm/kernel/Initializer/random_uniform/RandomUniform"
  input: "bidirectional_1/forward_lstm/kernel/Initializer/random_uniform/sub"
  attr {
    key: "T"
    value {
      type: DT_FLOAT
    }
  }
  attr {
    key: "_class"
    value {
      list {
        s: "loc:@bidirectional_1/forward_lstm/kernel"
      }
    }
  }
}
node {
  name: "bidirectional_1/forward_lstm/kernel/Initializer/random_uniform"
  op: "Add"
  input: "bidirectional_1/forward_lstm/kernel/Initializer/random_uniform/mul"
  input: "bidirectional_1/forward_lstm/kernel/Initializer/random_uniform/min"
  attr {
    key: "T"
    value {
      type: DT_FLOAT
    }
  }
  attr {
    key: "_class"
    value {
      list {
        s: "loc:@bidirectional_1/forward_lstm/kernel"
      }
    }
  }
}
node {
  name: "bidirectional_1/forward_lstm/kernel"
  op: "VarHandleOp"
  attr {
    key: "_class"
    value {
      list {
        s: "loc:@bidirectional_1/forward_lstm/kernel"
      }
    }
  }
  attr {
    key: "container"
    value {
      s: ""
    }
  }
  attr {
    key: "dtype"
    value {
      type: DT_FLOAT
    }
  }
  attr {
    key: "shape"
    value {
      shape {
        dim {
          size: 40
        }
        dim {
          size: 512
        }
      }
    }
  }
  attr {
    key: "shared_name"
    value {
      s: "bidirectional_1/forward_lstm/kernel"
    }
  }
}
node {
  name: "bidirectional_1/forward_lstm/kernel/IsInitialized/VarIsInitializedOp"
  op: "VarIsInitializedOp"
  input: "bidirectional_1/forward_lstm/kernel"
}
node {
  name: "bidirectional_1/forward_lstm/kernel/Assign"
  op: "AssignVariableOp"
  input: "bidirectional_1/forward_lstm/kernel"
  input: "bidirectional_1/forward_lstm/kernel/Initializer/random_uniform"
  attr {
    key: "dtype"
    value {
      type: DT_FLOAT
    }
  }
}
node {
  name: "bidirectional_1/forward_lstm/kernel/Read/ReadVariableOp"
  op: "ReadVariableOp"
  input: "bidirectional_1/forward_lstm/kernel"
  attr {
    key: "dtype"
    value {
      type: DT_FLOAT
    }
  }
}
node {
  name: "bidirectional_1/forward_lstm/recurrent_kernel/Initializer/random_normal/shape"
  op: "Const"
  attr {
    key: "_class"
    value {
      list {
        s: "loc:@bidirectional_1/forward_lstm/recurrent_kernel"
      }
    }
  }
  attr {
    key: "dtype"
    value {
      type: DT_INT32
    }
  }
  attr {
    key: "value"
    value {
      tensor {
        dtype: DT_INT32
        tensor_shape {
          dim {
            size: 2
          }
        }
        tensor_content: "\000\002\000\000\200\000\000\000"
      }
    }
  }
}
node {
  name: "bidirectional_1/forward_lstm/recurrent_kernel/Initializer/random_normal/mean"
  op: "Const"
  attr {
    key: "_class"
    value {
      list {
        s: "loc:@bidirectional_1/forward_lstm/recurrent_kernel"
      }
    }
  }
  attr {
    key: "dtype"
    value {
      type: DT_FLOAT
    }
  }
  attr {
    key: "value"
    value {
      tensor {
        dtype: DT_FLOAT
        tensor_shape {
        }
        float_val: 0.0
      }
    }
  }
}
node {
  name: "bidirectional_1/forward_lstm/recurrent_kernel/Initializer/random_normal/stddev"
  op: "Const"
  attr {
    key: "_class"
    value {
      list {
        s: "loc:@bidirectional_1/forward_lstm/recurrent_kernel"
      }
    }
  }
  attr {
    key: "dtype"
    value {
      type: DT_FLOAT
    }
  }
  attr {
    key: "value"
    value {
      tensor {
        dtype: DT_FLOAT
        tensor_shape {
        }
        float_val: 1.0
      }
    }
  }
}
node {
  name: "bidirectional_1/forward_lstm/recurrent_kernel/Initializer/random_normal/RandomStandardNormal"
  op: "RandomStandardNormal"
  input: "bidirectional_1/forward_lstm/recurrent_kernel/Initializer/random_normal/shape"
  attr {
    key: "T"
    value {
      type: DT_INT32
    }
  }
  attr {
    key: "_class"
    value {
      list {
        s: "loc:@bidirectional_1/forward_lstm/recurrent_kernel"
      }
    }
  }
  attr {
    key: "dtype"
    value {
      type: DT_FLOAT
    }
  }
  attr {
    key: "seed"
    value {
      i: 0
    }
  }
  attr {
    key: "seed2"
    value {
      i: 0
    }
  }
}
node {
  name: "bidirectional_1/forward_lstm/recurrent_kernel/Initializer/random_normal/mul"
  op: "Mul"
  input: "bidirectional_1/forward_lstm/recurrent_kernel/Initializer/random_normal/RandomStandardNormal"
  input: "bidirectional_1/forward_lstm/recurrent_kernel/Initializer/random_normal/stddev"
  attr {
    key: "T"
    value {
      type: DT_FLOAT
    }
  }
  attr {
    key: "_class"
    value {
      list {
        s: "loc:@bidirectional_1/forward_lstm/recurrent_kernel"
      }
    }
  }
}
node {
  name: "bidirectional_1/forward_lstm/recurrent_kernel/Initializer/random_normal"
  op: "Add"
  input: "bidirectional_1/forward_lstm/recurrent_kernel/Initializer/random_normal/mul"
  input: "bidirectional_1/forward_lstm/recurrent_kernel/Initializer/random_normal/mean"
  attr {
    key: "T"
    value {
      type: DT_FLOAT
    }
  }
  attr {
    key: "_class"
    value {
      list {
        s: "loc:@bidirectional_1/forward_lstm/recurrent_kernel"
      }
    }
  }
}
node {
  name: "bidirectional_1/forward_lstm/recurrent_kernel/Initializer/Qr"
  op: "Qr"
  input: "bidirectional_1/forward_lstm/recurrent_kernel/Initializer/random_normal"
  attr {
    key: "T"
    value {
      type: DT_FLOAT
    }
  }
  attr {
    key: "_class"
    value {
      list {
        s: "loc:@bidirectional_1/forward_lstm/recurrent_kernel"
      }
    }
  }
  attr {
    key: "full_matrices"
    value {
      b: false
    }
  }
}
node {
  name: "bidirectional_1/forward_lstm/recurrent_kernel/Initializer/DiagPart"
  op: "DiagPart"
  input: "bidirectional_1/forward_lstm/recurrent_kernel/Initializer/Qr:1"
  attr {
    key: "T"
    value {
      type: DT_FLOAT
    }
  }
  attr {
    key: "_class"
    value {
      list {
        s: "loc:@bidirectional_1/forward_lstm/recurrent_kernel"
      }
    }
  }
}
node {
  name: "bidirectional_1/forward_lstm/recurrent_kernel/Initializer/Sign"
  op: "Sign"
  input: "bidirectional_1/forward_lstm/recurrent_kernel/Initializer/DiagPart"
  attr {
    key: "T"
    value {
      type: DT_FLOAT
    }
  }
  attr {
    key: "_class"
    value {
      list {
        s: "loc:@bidirectional_1/forward_lstm/recurrent_kernel"
      }
    }
  }
}
node {
  name: "bidirectional_1/forward_lstm/recurrent_kernel/Initializer/mul"
  op: "Mul"
  input: "bidirectional_1/forward_lstm/recurrent_kernel/Initializer/Qr"
  input: "bidirectional_1/forward_lstm/recurrent_kernel/Initializer/Sign"
  attr {
    key: "T"
    value {
      type: DT_FLOAT
    }
  }
  attr {
    key: "_class"
    value {
      list {
        s: "loc:@bidirectional_1/forward_lstm/recurrent_kernel"
      }
    }
  }
}
node {
  name: "bidirectional_1/forward_lstm/recurrent_kernel/Initializer/matrix_transpose/transpose/perm"
  op: "Const"
  attr {
    key: "_class"
    value {
      list {
        s: "loc:@bidirectional_1/forward_lstm/recurrent_kernel"
      }
    }
  }
  attr {
    key: "dtype"
    value {
      type: DT_INT32
    }
  }
  attr {
    key: "value"
    value {
      tensor {
        dtype: DT_INT32
        tensor_shape {
          dim {
            size: 2
          }
        }
        tensor_content: "\001\000\000\000\000\000\000\000"
      }
    }
  }
}
node {
  name: "bidirectional_1/forward_lstm/recurrent_kernel/Initializer/matrix_transpose/transpose"
  op: "Transpose"
  input: "bidirectional_1/forward_lstm/recurrent_kernel/Initializer/mul"
  input: "bidirectional_1/forward_lstm/recurrent_kernel/Initializer/matrix_transpose/transpose/perm"
  attr {
    key: "T"
    value {
      type: DT_FLOAT
    }
  }
  attr {
    key: "Tperm"
    value {
      type: DT_INT32
    }
  }
  attr {
    key: "_class"
    value {
      list {
        s: "loc:@bidirectional_1/forward_lstm/recurrent_kernel"
      }
    }
  }
}
node {
  name: "bidirectional_1/forward_lstm/recurrent_kernel/Initializer/Reshape/shape"
  op: "Const"
  attr {
    key: "_class"
    value {
      list {
        s: "loc:@bidirectional_1/forward_lstm/recurrent_kernel"
      }
    }
  }
  attr {
    key: "dtype"
    value {
      type: DT_INT32
    }
  }
  attr {
    key: "value"
    value {
      tensor {
        dtype: DT_INT32
        tensor_shape {
          dim {
            size: 2
          }
        }
        tensor_content: "\200\000\000\000\000\002\000\000"
      }
    }
  }
}
node {
  name: "bidirectional_1/forward_lstm/recurrent_kernel/Initializer/Reshape"
  op: "Reshape"
  input: "bidirectional_1/forward_lstm/recurrent_kernel/Initializer/matrix_transpose/transpose"
…
  name: "bidirectional_1/backward_lstm_1/TensorArrayUnstack/strided_slice"
  op: "StridedSlice"
  input: "bidirectional_1/backward_lstm_1/TensorArrayUnstack/Shape"
  input: "bidirectional_1/backward_lstm_1/TensorArrayUnstack/strided_slice/stack"
  input: "bidirectional_1/backward_lstm_1/TensorArrayUnstack/strided_slice/stack_1"
  input: "bidirectional_1/backward_lstm_1/TensorArrayUnstack/strided_slice/stack_2"
  attr {
    key: "Index"
    value {
      type: DT_INT32
    }
  }
  attr {
    key: "T"
    value {
      type: DT_INT32
    }
  }
  attr {
    key: "begin_mask"
    value {
      i: 0
    }
  }
  attr {
    key: "ellipsis_mask"
    value {
      i: 0
    }
  }
  attr {
    key: "end_mask"
    value {
      i: 0
    }
  }
  attr {
    key: "new_axis_mask"
    value {
      i: 0
    }
  }
  attr {
    key: "shrink_axis_mask"
    value {
      i: 1
    }
  }
}
node {
  name: "bidirectional_1/backward_lstm_1/TensorArrayUnstack/range/start"
  op: "Const"
  attr {
    key: "dtype"
    value {
      type: DT_INT32
    }
  }
  attr {
    key: "value"
    value {
      tensor {
        dtype: DT_INT32
        tensor_shape {
        }
        int_val: 0
      }
    }
  }
}
node {
  name: "bidirectional_1/backward_lstm_1/TensorArrayUnstack/range/delta"
  op: "Const"
  attr {
    key: "dtype"
    value {
      type: DT_INT32
    }
  }
  attr {
    key: "value"
    value {
      tensor {
        dtype: DT_INT32
        tensor_shape {
        }
        int_val: 1
      }
    }
  }
}
node {
  name: "bidirectional_1/backward_lstm_1/TensorArrayUnstack/range"
  op: "Range"
  input: "bidirectional_1/backward_lstm_1/TensorArrayUnstack/range/start"
  input: "bidirectional_1/backward_lstm_1/TensorArrayUnstack/strided_slice"
  input: "bidirectional_1/backward_lstm_1/TensorArrayUnstack/range/delta"
  attr {
    key: "Tidx"
    value {
      type: DT_INT32
    }
  }
}
node {
  name: "bidirectional_1/backward_lstm_1/TensorArrayUnstack/TensorArrayScatter/TensorArrayScatterV3"
  op: "TensorArrayScatterV3"
  input: "bidirectional_1/backward_lstm_1/TensorArray"
  input: "bidirectional_1/backward_lstm_1/TensorArrayUnstack/range"
  input: "bidirectional_1/backward_lstm_1/ReverseV2"
  input: "bidirectional_1/backward_lstm_1/TensorArray:1"
  attr {
    key: "T"
    value {
      type: DT_FLOAT
    }
  }
  attr {
    key: "_class"
    value {
      list {
        s: "loc:@bidirectional_1/backward_lstm_1/ReverseV2"
      }
    }
  }
}
node {
  name: "bidirectional_1/backward_lstm_1/strided_slice_2/stack"
  op: "Const"
  attr {
    key: "dtype"
    value {
      type: DT_INT32
    }
  }
  attr {
    key: "value"
    value {
      tensor {
        dtype: DT_INT32
        tensor_shape {
          dim {
            size: 1
          }
        }
        int_val: 0
      }
    }
  }
}
node {
  name: "bidirectional_1/backward_lstm_1/strided_slice_2/stack_1"
  op: "Const"
  attr {
    key: "dtype"
    value {
      type: DT_INT32
    }
  }
  attr {
    key: "value"
    value {
      tensor {
        dtype: DT_INT32
        tensor_shape {
          dim {
            size: 1
          }
        }
        int_val: 1
      }
    }
  }
}
node {
  name: "bidirectional_1/backward_lstm_1/strided_slice_2/stack_2"
  op: "Const"
  attr {
    key: "dtype"
    value {
      type: DT_INT32
    }
  }
  attr {
    key: "value"
    value {
      tensor {
        dtype: DT_INT32
        tensor_shape {
          dim {
            size: 1
          }
        }
        int_val: 1
      }
    }
  }
}
node {
  name: "bidirectional_1/backward_lstm_1/strided_slice_2"
  op: "StridedSlice"
  input: "bidirectional_1/backward_lstm_1/transpose"
  input: "bidirectional_1/backward_lstm_1/strided_slice_2/stack"
  input: "bidirectional_1/backward_lstm_1/strided_slice_2/stack_1"
  input: "bidirectional_1/backward_lstm_1/strided_slice_2/stack_2"
  attr {
    key: "Index"
    value {
      type: DT_INT32
    }
  }
  attr {
    key: "T"
    value {
      type: DT_FLOAT
    }
  }
  attr {
    key: "begin_mask"
    value {
      i: 0
    }
  }
  attr {
    key: "ellipsis_mask"
    value {
      i: 0
    }
  }
  attr {
    key: "end_mask"
    value {
      i: 0
    }
  }
  attr {
    key: "new_axis_mask"
    value {
      i: 0
    }
  }
  attr {
    key: "shrink_axis_mask"
    value {
      i: 1
    }
  }
}
node {
  name: "bidirectional_1/backward_lstm_1/MatMul/ReadVariableOp"
  op: "ReadVariableOp"
  input: "bidirectional_1/backward_lstm/kernel"
  attr {
    key: "dtype"
    value {
      type: DT_FLOAT
    }
  }
}
node {
  name: "bidirectional_1/backward_lstm_1/MatMul"
  op: "MatMul"
  input: "bidirectional_1/backward_lstm_1/strided_slice_2"
  input: "bidirectional_1/backward_lstm_1/MatMul/ReadVariableOp"
  attr {
    key: "T"
    value {
      type: DT_FLOAT
    }
  }
  attr {
    key: "transpose_a"
    value {
      b: false
    }
  }
  attr {
    key: "transpose_b"
    value {
      b: false
    }
  }
}
node {
  name: "bidirectional_1/backward_lstm_1/MatMul_1/ReadVariableOp"
  op: "ReadVariableOp"
  input: "bidirectional_1/backward_lstm/recurrent_kernel"
  attr {
    key: "dtype"
    value {
      type: DT_FLOAT
    }
  }
}
node {
  name: "bidirectional_1/backward_lstm_1/MatMul_1"
  op: "MatMul"
  input: "bidirectional_1/backward_lstm_1/zeros"
  input: "bidirectional_1/backward_lstm_1/MatMul_1/ReadVariableOp"
  attr {
    key: "T"
    value {
      type: DT_FLOAT
    }
  }
  attr {
    key: "transpose_a"
    value {
      b: false
    }
  }
  attr {
    key: "transpose_b"
    value {
      b: false
    }
  }
}
node {
  name: "bidirectional_1/backward_lstm_1/add"
  op: "AddV2"
  input: "bidirectional_1/backward_lstm_1/MatMul"
  input: "bidirectional_1/backward_lstm_1/MatMul_1"
  attr {
    key: "T"
    value {
      type: DT_FLOAT
    }
  }
}
node {
  name: "bidirectional_1/backward_lstm_1/BiasAdd/ReadVariableOp"
  op: "ReadVariableOp"
  input: "bidirectional_1/backward_lstm/bias"
  attr {
    key: "dtype"
    value {
      type: DT_FLOAT
    }
  }
}
node {
  name: "bidirectional_1/backward_lstm_1/BiasAdd"
  op: "BiasAdd"
  input: "bidirectional_1/backward_lstm_1/add"
  input: "bidirectional_1/backward_lstm_1/BiasAdd/ReadVariableOp"
  attr {
    key: "T"
    value {
      type: DT_FLOAT
    }
  }
  attr {
    key: "data_format"
    value {
      s: "NHWC"
    }
  }
}
node {
  name: "bidirectional_1/backward_lstm_1/Const"
  op: "Const"
  attr {
    key: "dtype"
    value {
      type: DT_INT32
    }
  }
  attr {
    key: "value"
    value {
      tensor {
        dtype: DT_INT32
        tensor_shape {
        }
        int_val: 4
      }
    }
  }
}
node {
  name: "bidirectional_1/backward_lstm_1/split/split_dim"
  op: "Const"
  attr {
    key: "dtype"
    value {
      type: DT_INT32
    }
  }
  attr {
    key: "value"
    value {
      tensor {
        dtype: DT_INT32
        tensor_shape {
        }
        int_val: 1
      }
    }
  }
}
node {
  name: "bidirectional_1/backward_lstm_1/split"
  op: "Split"
  input: "bidirectional_1/backward_lstm_1/split/split_dim"
  input: "bidirectional_1/backward_lstm_1/BiasAdd"
  attr {
    key: "T"
    value {
      type: DT_FLOAT
    }
  }
  attr {
    key: "num_split"
    value {
      i: 4
    }
  }
}
node {
  name: "bidirectional_1/backward_lstm_1/Sigmoid"
  op: "Sigmoid"
  input: "bidirectional_1/backward_lstm_1/split"
  attr {
    key: "T"
    value {
      type: DT_FLOAT
    }
  }
}
node {
  name: "bidirectional_1/backward_lstm_1/Sigmoid_1"
  op: "Sigmoid"
  input: "bidirectional_1/backward_lstm_1/split:1"
  attr {
    key: "T"
    value {
      type: DT_FLOAT
    }
  }
}
node {
  name: "bidirectional_1/backward_lstm_1/mul"
  op: "Mul"
  input: "bidirectional_1/backward_lstm_1/Sigmoid_1"
  input: "bidirectional_1/backward_lstm_1/zeros_1"
  attr {
    key: "T"
    value {
      type: DT_FLOAT
    }
  }
}
node {
  name: "bidirectional_1/backward_lstm_1/Tanh"
  op: "Tanh"
  input: "bidirectional_1/backward_lstm_1/split:2"
  attr {
    key: "T"
    value {
      type: DT_FLOAT
    }
  }
}
node {
  name: "bidirectional_1/backward_lstm_1/mul_1"
  op: "Mul"
  input: "bidirectional_1/backward_lstm_1/Sigmoid"
  input: "bidirectional_1/backward_lstm_1/Tanh"
  attr {
    key: "T"
    value {
      type: DT_FLOAT
    }
  }
}
node {
  name: "bidirectional_1/backward_lstm_1/add_1"
  op: "AddV2"
  input: "bidirectional_1/backward_lstm_1/mul"
  input: "bidirectional_1/backward_lstm_1/mul_1"
  attr {
    key: "T"
    value {
      type: DT_FLOAT
    }
  }
}
node {
  name: "bidirectional_1/backward_lstm_1/Sigmoid_2"
  op: "Sigmoid"
  input: "bidirectional_1/backward_lstm_1/split:3"
  attr {
    key: "T"
    value {
      type: DT_FLOAT
    }
  }
}
node {
  name: "bidirectional_1/backward_lstm_1/Tanh_1"
  op: "Tanh"
  input: "bidirectional_1/backward_lstm_1/add_1"
  attr {
    key: "T"
    value {
      type: DT_FLOAT
    }
  }
}
node {
  name: "bidirectional_1/backward_lstm_1/mul_2"
  op: "Mul"
  input: "bidirectional_1/backward_lstm_1/Sigmoid_2"
  input: "bidirectional_1/backward_lstm_1/Tanh_1"
  attr {
    key: "T"
    value {
      type: DT_FLOAT
    }
  }
}
node {
  name: "bidirectional_1/backward_lstm_1/TensorArray_1"
  op: "TensorArrayV3"
  input: "bidirectional_1/backward_lstm_1/strided_slice_1"
  attr {
    key: "clear_after_read"
    value {
      b: true
    }
  }
  attr {
    key: "dtype"
    value {
      type: DT_FLOAT
    }
  }
  attr {
    key: "dynamic_size"
    value {
      b: false
    }
  }
  attr {
    key: "element_shape"
    value {
      shape {
        dim {
          size: -1
        }
        dim {
          size: 128
        }
      }
    }
  }
  attr {
    key: "identical_element_shapes"
    value {
      b: true
    }
  }
  attr {
    key: "tensor_array_name"
    value {
      s: "output_ta_0"
    }
  }
}
node {
  name: "bidirectional_1/backward_lstm_1/time"
  op: "Const"
  attr {
    key: "dtype"
    value {
      type: DT_INT32
    }
  }
  attr {
    key: "value"
    value {
      tensor {
        dtype: DT_INT32
        tensor_shape {
        }
        int_val: 0
      }
    }
  }
}
node {
  name: "bidirectional_1/backward_lstm_1/while/Enter"
  op: "Enter"
  input: "bidirectional_1/backward_lstm_1/time"
  attr {
    key: "T"
    value {
      type: DT_INT32
    }
  }
  attr {
    key: "frame_name"
    value {
      s: "bidirectional_1/backward_lstm_1/while/while_context"
    }
  }
  attr {
    key: "is_constant"
    value {
      b: false
    }
  }
  attr {
    key: "parallel_iterations"
    value {
      i: 32
    }
  }
}
node {
  name: "bidirectional_1/backward_lstm_1/while/Enter_1"
  op: "Enter"
  input: "bidirectional_1/backward_lstm_1/TensorArray_1:1"
  attr {
    key: "T"
    value {
      type: DT_FLOAT
    }
  }
  attr {
    key: "frame_name"
    value {
      s: "bidirectional_1/backward_lstm_1/while/while_context"
    }
  }
  attr {
    key: "is_constant"
    value {
      b: false
    }
  }
  attr {
    key: "parallel_iterations"
    value {
      i: 32
    }
  }
}
node {
  name: "bidirectional_1/backward_lstm_1/while/Enter_2"
  op: "Enter"
  input: "bidirectional_1/backward_lstm_1/zeros"
  attr {
    key: "T"
    value {
      type: DT_FLOAT
    }
  }
  attr {
    key: "frame_name"
    value {
      s: "bidirectional_1/backward_lstm_1/while/while_context"
    }
  }
  attr {
    key: "is_constant"
    value {
      b: false
    }
  }
  attr {
    key: "parallel_iterations"
    value {
      i: 32
    }
  }
}
node {
  name: "bidirectional_1/backward_lstm_1/while/Enter_3"
  op: "Enter"
  input: "bidirectional_1/backward_lstm_1/zeros_1"
  attr {
    key: "T"
    value {
      type: DT_FLOAT
    }
  }
  attr {
    key: "frame_name"
    value {
      s: "bidirectional_1/backward_lstm_1/while/while_context"
    }
  }
  attr {
    key: "is_constant"
    value {
      b: false
    }
  }
  attr {
    key: "parallel_iterations"
    value {
      i: 32
    }
  }
}
node {
  name: "bidirectional_1/backward_lstm_1/while/Merge"
  op: "Merge"
  input: "bidirectional_1/backward_lstm_1/while/Enter"
  input: "bidirectional_1/backward_lstm_1/while/NextIteration"
  attr {
    key: "N"
    value {
      i: 2
    }
  }
  attr {
    key: "T"
    value {
      type: DT_INT32
    }
  }
}
node {
  name: "bidirectional_1/backward_lstm_1/while/Merge_1"
  op: "Merge"
  input: "bidirectional_1/backward_lstm_1/while/Enter_1"
  input: "bidirectional_1/backward_lstm_1/while/NextIteration_1"
  attr {
    key: "N"
    value {
      i: 2
    }
  }
  attr {
    key: "T"
    value {
      type: DT_FLOAT
    }
  }
}
node {
  name: "bidirectional_1/backward_lstm_1/while/Merge_2"
  op: "Merge"
  input: "bidirectional_1/backward_lstm_1/while/Enter_2"
  input: "bidirectional_1/backward_lstm_1/while/NextIteration_2"
  attr {
    key: "N"
    value {
      i: 2
    }
  }
  attr {
    key: "T"
    value {
      type: DT_FLOAT
    }
  }
}
node {
  name: "bidirectional_1/backward_lstm_1/while/Merge_3"
  op: "Merge"
  input: "bidirectional_1/backward_lstm_1/while/Enter_3"
  input: "bidirectional_1/backward_lstm_1/while/NextIteration_3"
  attr {
    key: "N"
    value {
      i: 2
    }
  }
  attr {
    key: "T"
    value {
      type: DT_FLOAT
    }
  }
}
node {
  name: "bidirectional_1/backward_lstm_1/while/Less"
  op: "Less"
  input: "bidirectional_1/backward_lstm_1/while/Merge"
  input: "bidirectional_1/backward_lstm_1/while/Less/Enter"
  attr {
    key: "T"
    value {
      type: DT_INT32
    }
  }
}
node {
  name: "bidirectional_1/backward_lstm_1/while/Less/Enter"
  op: "Enter"
  input: "bidirectional_1/backward_lstm_1/strided_slice_1"
  attr {
    key: "T"
    value {
      type: DT_INT32
    }
  }
  attr {
    key: "frame_name"
    value {
      s: "bidirectional_1/backward_lstm_1/while/while_context"
    }
  }
  attr {
    key: "is_constant"
    value {
      b: true
    }
  }
  attr {
    key: "parallel_iterations"
    value {
      i: 32
    }
  }
}
node {
  name: "bidirectional_1/backward_lstm_1/while/LoopCond"
  op: "LoopCond"
  input: "bidirectional_1/backward_lstm_1/while/Less"
}
node {
  name: "bidirectional_1/backward_lstm_1/while/Switch"
  op: "Switch"
  input: "bidirectional_1/backward_lstm_1/while/Merge"
  input: "bidirectional_1/backward_lstm_1/while/LoopCond"
  attr {
    key: "T"
    value {
      type: DT_INT32
    }
  }
  attr {
    key: "_class"
    value {
      list {
        s: "loc:@bidirectional_1/backward_lstm_1/while/Merge"
      }
    }
  }
}
node {
  name: "bidirectional_1/backward_lstm_1/while/Switch_1"
  op: "Switch"
  input: "bidirectional_1/backward_lstm_1/while/Merge_1"
  input: "bidirectional_1/backward_lstm_1/while/LoopCond"
  attr {
    key: "T"
    value {
      type: DT_FLOAT
    }
  }
  attr {
    key: "_class"
    value {
      list {
        s: "loc:@bidirectional_1/backward_lstm_1/while/Merge_1"
      }
    }
  }
}
node {
  name: "bidirectional_1/backward_lstm_1/while/Switch_2"
  op: "Switch"
  input: "bidirectional_1/backward_lstm_1/while/Merge_2"
  input: "bidirectional_1/backward_lstm_1/while/LoopCond"
  attr {
    key: "T"
    value {
      type: DT_FLOAT
    }
  }
  attr {
    key: "_class"
    value {
      list {
        s: "loc:@bidirectional_1/backward_lstm_1/while/Merge_2"
      }
    }
  }
}
node {
  name: "bidirectional_1/backward_lstm_1/while/Switch_3"
  op: "Switch"
  input: "bidirectional_1/backward_lstm_1/while/Merge_3"
  input: "bidirectional_1/backward_lstm_1/while/LoopCond"
  attr {
    key: "T"
    value {
      type: DT_FLOAT
    }
  }
  attr {
    key: "_class"
    value {
      list {
        s: "loc:@bidirectional_1/backward_lstm_1/while/Merge_3"
      }
    }
  }
}
node {
  name: "bidirectional_1/backward_lstm_1/while/Identity"
  op: "Identity"
  input: "bidirectional_1/backward_lstm_1/while/Switch:1"
  attr {
    key: "T"
    value {
      type: DT_INT32
    }
  }
}
node {
  name: "bidirectional_1/backward_lstm_1/while/Identity_1"
  op: "Identity"
  input: "bidirectional_1/backward_lstm_1/while/Switch_1:1"
  attr {
    key: "T"
    value {
      type: DT_FLOAT
    }
  }
}
node {
  name: "bidirectional_1/backward_lstm_1/while/Identity_2"
  op: "Identity"
  input: "bidirectional_1/backward_lstm_1/while/Switch_2:1"
  attr {
    key: "T"
    value {
      type: DT_FLOAT
    }
  }
}
node {
  name: "bidirectional_1/backward_lstm_1/while/Identity_3"
  op: "Identity"
  input: "bidirectional_1/backward_lstm_1/while/Switch_3:1"
  attr {
    key: "T"
    value {
      type: DT_FLOAT
    }
  }
}
node {
  name: "bidirectional_1/backward_lstm_1/while/TensorArrayReadV3"
  op: "TensorArrayReadV3"
  input: "bidirectional_1/backward_lstm_1/while/TensorArrayReadV3/Enter"
  input: "bidirectional_1/backward_lstm_1/while/Identity"
  input: "bidirectional_1/backward_lstm_1/while/TensorArrayReadV3/Enter_1"
  attr {
    key: "dtype"
    value {
      type: DT_FLOAT
    }
  }
}
node {
  name: "bidirectional_1/backward_lstm_1/while/TensorArrayReadV3/Enter"
  op: "Enter"
  input: "bidirectional_1/backward_lstm_1/TensorArray"
  attr {
    key: "T"
    value {
      type: DT_RESOURCE
    }
  }
  attr {
    key: "frame_name"
    value {
      s: "bidirectional_1/backward_lstm_1/while/while_context"
    }
  }
  attr {
    key: "is_constant"
    value {
      b: true
    }
  }
  attr {
    key: "parallel_iterations"
    value {
      i: 32
    }
  }
}
node {
  name: "bidirectional_1/backward_lstm_1/while/TensorArrayReadV3/Enter_1"
  op: "Enter"
  input: "bidirectional_1/backward_lstm_1/TensorArrayUnstack/TensorArrayScatter/TensorArrayScatterV3"
  attr {
    key: "T"
    value {
      type: DT_FLOAT
    }
  }
  attr {
    key: "frame_name"
    value {
      s: "bidirectional_1/backward_lstm_1/while/while_context"
    }
  }
  attr {
    key: "is_constant"
    value {
      b: true
    }
  }
  attr {
    key: "parallel_iterations"
    value {
      i: 32
    }
  }
}
node {
  name: "bidirectional_1/backward_lstm_1/while/MatMul/ReadVariableOp"
  op: "ReadVariableOp"
  input: "bidirectional_1/backward_lstm_1/while/MatMul/ReadVariableOp/Enter"
  input: "^bidirectional_1/backward_lstm_1/while/Identity"
  attr {
    key: "dtype"
    value {
      type: DT_FLOAT
    }
  }
}
node {
  name: "bidirectional_1/backward_lstm_1/while/MatMul/ReadVariableOp/Enter"
  op: "Enter"
  input: "bidirectional_1/backward_lstm/kernel"
  attr {
    key: "T"
    value {
      type: DT_RESOURCE
    }
  }
  attr {
    key: "frame_name"
    value {
      s: "bidirectional_1/backward_lstm_1/while/while_context"
    }
  }
  attr {
    key: "is_constant"
    value {
      b: true
    }
  }
  attr {
    key: "parallel_iterations"
    value {
      i: 32
    }
  }
}
node {
  name: "bidirectional_1/backward_lstm_1/while/MatMul"
  op: "MatMul"
  input: "bidirectional_1/backward_lstm_1/while/TensorArrayReadV3"
  input: "bidirectional_1/backward_lstm_1/while/MatMul/ReadVariableOp"
  attr {
    key: "T"
    value {
      type: DT_FLOAT
    }
  }
  attr {
    key: "transpose_a"
    value {
      b: false
    }
  }
  attr {
    key: "transpose_b"
    value {
      b: false
    }
  }
}
node {
  name: "bidirectional_1/backward_lstm_1/while/MatMul_1/ReadVariableOp"
  op: "ReadVariableOp"
  input: "bidirectional_1/backward_lstm_1/while/MatMul_1/ReadVariableOp/Enter"
  input: "^bidirectional_1/backward_lstm_1/while/Identity"
  attr {
    key: "dtype"
    value {
      type: DT_FLOAT
    }
  }
}
node {
  name: "bidirectional_1/backward_lstm_1/while/MatMul_1/ReadVariableOp/Enter"
  op: "Enter"
  input: "bidirectional_1/backward_lstm/recurrent_kernel"
  attr {
    key: "T"
    value {
      type: DT_RESOURCE
    }
  }
  attr {
    key: "frame_name"
    value {
      s: "bidirectional_1/backward_lstm_1/while/while_context"
    }
  }
  attr {
    key: "is_constant"
    value {
      b: true
    }
  }
  attr {
    key: "parallel_iterations"
    value {
      i: 32
    }
  }
}
node {
  name: "bidirectional_1/backward_lstm_1/while/MatMul_1"
  op: "MatMul"
  input: "bidirectional_1/backward_lstm_1/while/Identity_2"
  input: "bidirectional_1/backward_lstm_1/while/MatMul_1/ReadVariableOp"
  attr {
    key: "T"
    value {
      type: DT_FLOAT
    }
  }
  attr {
    key: "transpose_a"
    value {
      b: false
    }
  }
  attr {
    key: "transpose_b"
    value {
      b: false
    }
  }
}
node {
  name: "bidirectional_1/backward_lstm_1/while/add"
  op: "AddV2"
  input: "bidirectional_1/backward_lstm_1/while/MatMul"
  input: "bidirectional_1/backward_lstm_1/while/MatMul_1"
  attr {
    key: "T"
    value {
      type: DT_FLOAT
    }
  }
}
node {
  name: "bidirectional_1/backward_lstm_1/while/BiasAdd/ReadVariableOp"
  op: "ReadVariableOp"
  input: "bidirectional_1/backward_lstm_1/while/BiasAdd/ReadVariableOp/Enter"
  input: "^bidirectional_1/backward_lstm_1/while/Identity"
  attr {
    key: "dtype"
    value {
      type: DT_FLOAT
    }
  }
}
node {
  name: "bidirectional_1/backward_lstm_1/while/BiasAdd/ReadVariableOp/Enter"
  op: "Enter"
  input: "bidirectional_1/backward_lstm/bias"
  attr {
    key: "T"
    value {
      type: DT_RESOURCE
    }
  }
  attr {
    key: "frame_name"
    value {
      s: "bidirectional_1/backward_lstm_1/while/while_context"
    }
  }
  attr {
    key: "is_constant"
    value {
      b: true
    }
  }
  attr {
    key: "parallel_iterations"
    value {
      i: 32
    }
  }
}
node {
  name: "bidirectional_1/backward_lstm_1/while/BiasAdd"
  op: "BiasAdd"
  input: "bidirectional_1/backward_lstm_1/while/add"
  input: "bidirectional_1/backward_lstm_1/while/BiasAdd/ReadVariableOp"
  attr {
    key: "T"
    value {
      type: DT_FLOAT
    }
  }
  attr {
    key: "data_format"
    value {
      s: "NHWC"
    }
  }
}
node {
  name: "bidirectional_1/backward_lstm_1/while/Const"
  op: "Const"
  input: "^bidirectional_1/backward_lstm_1/while/Identity"
  attr {
    key: "dtype"
    value {
      type: DT_INT32
    }
  }
  attr {
    key: "value"
    value {
      tensor {
        dtype: DT_INT32
        tensor_shape {
        }
        int_val: 4
      }
    }
  }
}
node {
  name: "bidirectional_1/backward_lstm_1/while/split/split_dim"
  op: "Const"
  input: "^bidirectional_1/backward_lstm_1/while/Identity"
  attr {
    key: "dtype"
    value {
      type: DT_INT32
    }
  }
  attr {
    key: "value"
    value {
      tensor {
        dtype: DT_INT32
        tensor_shape {
        }
        int_val: 1
      }
    }
  }
}
node {
  name: "bidirectional_1/backward_lstm_1/while/split"
  op: "Split"
  input: "bidirectional_1/backward_lstm_1/while/split/split_dim"
  input: "bidirectional_1/backward_lstm_1/while/BiasAdd"
  attr {
    key: "T"
    value {
      type: DT_FLOAT
    }
  }
  attr {
    key: "num_split"
    value {
      i: 4
    }
  }
}
node {
  name: "bidirectional_1/backward_lstm_1/while/Sigmoid"
  op: "Sigmoid"
  input: "bidirectional_1/backward_lstm_1/while/split"
  attr {
    key: "T"
    value {
      type: DT_FLOAT
    }
  }
}
node {
  name: "bidirectional_1/backward_lstm_1/while/Sigmoid_1"
  op: "Sigmoid"
  input: "bidirectional_1/backward_lstm_1/while/split:1"
  attr {
    key: "T"
    value {
      type: DT_FLOAT
    }
  }
}
node {
  name: "bidirectional_1/backward_lstm_1/while/mul"
  op: "Mul"
  input: "bidirectional_1/backward_lstm_1/while/Sigmoid_1"
  input: "bidirectional_1/backward_lstm_1/while/Identity_3"
  attr {
    key: "T"
    value {
      type: DT_FLOAT
    }
  }
}
node {
  name: "bidirectional_1/backward_lstm_1/while/Tanh"
  op: "Tanh"
  input: "bidirectional_1/backward_lstm_1/while/split:2"
  attr {
    key: "T"
    value {
      type: DT_FLOAT
    }
  }
}
node {
  name: "bidirectional_1/backward_lstm_1/while/mul_1"
  op: "Mul"
  input: "bidirectional_1/backward_lstm_1/while/Sigmoid"
  input: "bidirectional_1/backward_lstm_1/while/Tanh"
  attr {
    key: "T"
    value {
      type: DT_FLOAT
    }
  }
}
node {
  name: "bidirectional_1/backward_lstm_1/while/add_1"
  op: "AddV2"
  input: "bidirectional_1/backward_lstm_1/while/mul"
  input: "bidirectional_1/backward_lstm_1/while/mul_1"
  attr {
    key: "T"
    value {
      type: DT_FLOAT
    }
  }
}
node {
  name: "bidirectional_1/backward_lstm_1/while/Sigmoid_2"
  op: "Sigmoid"
  input: "bidirectional_1/backward_lstm_1/while/split:3"
  attr {
    key: "T"
    value {
      type: DT_FLOAT
    }
  }
}
node {
  name: "bidirectional_1/backward_lstm_1/while/Tanh_1"
  op: "Tanh"
  input: "bidirectional_1/backward_lstm_1/while/add_1"
  attr {
    key: "T"
    value {
      type: DT_FLOAT
    }
  }
}
node {
  name: "bidirectional_1/backward_lstm_1/while/mul_2"
  op: "Mul"
  input: "bidirectional_1/backward_lstm_1/while/Sigmoid_2"
  input: "bidirectional_1/backward_lstm_1/while/Tanh_1"
  attr {
    key: "T"
    value {
      type: DT_FLOAT
    }
  }
}
node {
  name: "bidirectional_1/backward_lstm_1/while/TensorArrayWrite/TensorArrayWriteV3"
  op: "TensorArrayWriteV3"
  input: "bidirectional_1/backward_lstm_1/while/TensorArrayWrite/TensorArrayWriteV3/Enter"
  input: "bidirectional_1/backward_lstm_1/while/Identity"
  input: "bidirectional_1/backward_lstm_1/while/mul_2"
  input: "bidirectional_1/backward_lstm_1/while/Identity_1"
  attr {
    key: "T"
    value {
      type: DT_FLOAT
    }
  }
  attr {
    key: "_class"
    value {
      list {
        s: "loc:@bidirectional_1/backward_lstm_1/while/mul_2"
      }
    }
  }
}
node {
  name: "bidirectional_1/backward_lstm_1/while/TensorArrayWrite/TensorArrayWriteV3/Enter"
  op: "Enter"
  input: "bidirectional_1/backward_lstm_1/TensorArray_1"
  attr {
    key: "T"
    value {
      type: DT_RESOURCE
    }
  }
  attr {
    key: "_class"
    value {
      list {
        s: "loc:@bidirectional_1/backward_lstm_1/while/mul_2"
      }
    }
  }
  attr {
    key: "frame_name"
    value {
      s: "bidirectional_1/backward_lstm_1/while/while_context"
    }
  }
  attr {
    key: "is_constant"
    value {
      b: true
    }
  }
  attr {
    key: "parallel_iterations"
    value {
      i: 32
    }
  }
}
node {
  name: "bidirectional_1/backward_lstm_1/while/add_2/y"
  op: "Const"
  input: "^bidirectional_1/backward_lstm_1/while/Identity"
  attr {
    key: "dtype"
    value {
      type: DT_INT32
    }
  }
  attr {
    key: "value"
    value {
      tensor {
        dtype: DT_INT32
        tensor_shape {
        }
        int_val: 1
      }
    }
  }
}
node {
  name: "bidirectional_1/backward_lstm_1/while/add_2"
  op: "AddV2"
  input: "bidirectional_1/backward_lstm_1/while/Identity"
  input: "bidirectional_1/backward_lstm_1/while/add_2/y"
  attr {
    key: "T"
    value {
      type: DT_INT32
    }
  }
}
node {
  name: "bidirectional_1/backward_lstm_1/while/NextIteration"
  op: "NextIteration"
  input: "bidirectional_1/backward_lstm_1/while/add_2"
  attr {
    key: "T"
    value {
      type: DT_INT32
    }
  }
}
node {
  name: "bidirectional_1/backward_lstm_1/while/NextIteration_1"
  op: "NextIteration"
  input: "bidirectional_1/backward_lstm_1/while/TensorArrayWrite/TensorArrayWriteV3"
  attr {
    key: "T"
    value {
      type: DT_FLOAT
    }
  }
}
node {
  name: "bidirectional_1/backward_lstm_1/while/NextIteration_2"
  op: "NextIteration"
  input: "bidirectional_1/backward_lstm_1/while/mul_2"
  attr {
    key: "T"
    value {
      type: DT_FLOAT
    }
  }
}
node {
  name: "bidirectional_1/backward_lstm_1/while/NextIteration_3"
  op: "NextIteration"
  input: "bidirectional_1/backward_lstm_1/while/add_1"
  attr {
    key: "T"
    value {
      type: DT_FLOAT
    }
  }
}
node {
  name: "bidirectional_1/backward_lstm_1/while/Exit"
  op: "Exit"
  input: "bidirectional_1/backward_lstm_1/while/Switch"
  attr {
    key: "T"
    value {
      type: DT_INT32
    }
  }
}
node {
  name: "bidirectional_1/backward_lstm_1/while/Exit_1"
  op: "Exit"
  input: "bidirectional_1/backward_lstm_1/while/Switch_1"
  attr {
    key: "T"
    value {
      type: DT_FLOAT
    }
  }
}
node {
  name: "bidirectional_1/backward_lstm_1/while/Exit_2"
  op: "Exit"
  input: "bidirectional_1/backward_lstm_1/while/Switch_2"
  attr {
    key: "T"
    value {
      type: DT_FLOAT
    }
  }
}
node {
  name: "bidirectional_1/backward_lstm_1/while/Exit_3"
  op: "Exit"
  input: "bidirectional_1/backward_lstm_1/while/Switch_3"
  attr {
    key: "T"
    value {
      type: DT_FLOAT
    }
  }
}
node {
  name: "bidirectional_1/backward_lstm_1/TensorArrayStack/TensorArraySizeV3"
  op: "TensorArraySizeV3"
  input: "bidirectional_1/backward_lstm_1/TensorArray_1"
  input: "bidirectional_1/backward_lstm_1/while/Exit_1"
  attr {
    key: "_class"
    value {
      list {
        s: "loc:@bidirectional_1/backward_lstm_1/TensorArray_1"
      }
    }
  }
}
node {
  name: "bidirectional_1/backward_lstm_1/TensorArrayStack/range/start"
  op: "Const"
  attr {
    key: "_class"
    value {
      list {
        s: "loc:@bidirectional_1/backward_lstm_1/TensorArray_1"
      }
    }
  }
  attr {
    key: "dtype"
    value {
      type: DT_INT32
    }
  }
  attr {
    key: "value"
    value {
      tensor {
        dtype: DT_INT32
        tensor_shape {
        }
        int_val: 0
      }
    }
  }
}
node {
  name: "bidirectional_1/backward_lstm_1/TensorArrayStack/range/delta"
  op: "Const"
  attr {
    key: "_class"
    value {
      list {
        s: "loc:@bidirectional_1/backward_lstm_1/TensorArray_1"
      }
    }
  }
  attr {
    key: "dtype"
    value {
      type: DT_INT32
    }
  }
  attr {
    key: "value"
    value {
      tensor {
        dtype: DT_INT32
        tensor_shape {
        }
        int_val: 1
      }
    }
  }
}
node {
  name: "bidirectional_1/backward_lstm_1/TensorArrayStack/range"
  op: "Range"
  input: "bidirectional_1/backward_lstm_1/TensorArrayStack/range/start"
  input: "bidirectional_1/backward_lstm_1/TensorArrayStack/TensorArraySizeV3"
  input: "bidirectional_1/backward_lstm_1/TensorArrayStack/range/delta"
  attr {
    key: "Tidx"
    value {
      type: DT_INT32
    }
  }
  attr {
    key: "_class"
    value {
      list {
        s: "loc:@bidirectional_1/backward_lstm_1/TensorArray_1"
      }
    }
  }
}
node {
  name: "bidirectional_1/backward_lstm_1/TensorArrayStack/TensorArrayGatherV3"
  op: "TensorArrayGatherV3"
  input: "bidirectional_1/backward_lstm_1/TensorArray_1"
  input: "bidirectional_1/backward_lstm_1/TensorArrayStack/range"
  input: "bidirectional_1/backward_lstm_1/while/Exit_1"
  attr {
    key: "_class"
    value {
      list {
        s: "loc:@bidirectional_1/backward_lstm_1/TensorArray_1"
      }
    }
  }
  attr {
    key: "dtype"
    value {
      type: DT_FLOAT
    }
  }
  attr {
    key: "element_shape"
    value {
      shape {
        dim {
          size: -1
        }
        dim {
          size: 128
        }
      }
    }
  }
}
node {
  name: "bidirectional_1/backward_lstm_1/strided_slice_3/stack"
  op: "Const"
  attr {
    key: "dtype"
    value {
      type: DT_INT32
    }
  }
  attr {
    key: "value"
    value {
      tensor {
        dtype: DT_INT32
        tensor_shape {
          dim {
            size: 1
          }
        }
        int_val: -1
      }
    }
  }
}
node {
  name: "bidirectional_1/backward_lstm_1/strided_slice_3/stack_1"
  op: "Const"
  attr {
    key: "dtype"
    value {
      type: DT_INT32
    }
  }
  attr {
    key: "value"
    value {
      tensor {
        dtype: DT_INT32
        tensor_shape {
          dim {
            size: 1
          }
        }
        int_val: 0
      }
    }
  }
}
node {
  name: "bidirectional_1/backward_lstm_1/strided_slice_3/stack_2"
  op: "Const"
  attr {
    key: "dtype"
    value {
      type: DT_INT32
    }
  }
  attr {
    key: "value"
    value {
      tensor {
        dtype: DT_INT32
        tensor_shape {
          dim {
            size: 1
          }
        }
        int_val: 1
      }
    }
  }
}
node {
  name: "bidirectional_1/backward_lstm_1/strided_slice_3"
  op: "StridedSlice"
  input: "bidirectional_1/backward_lstm_1/TensorArrayStack/TensorArrayGatherV3"
  input: "bidirectional_1/backward_lstm_1/strided_slice_3/stack"
  input: "bidirectional_1/backward_lstm_1/strided_slice_3/stack_1"
  input: "bidirectional_1/backward_lstm_1/strided_slice_3/stack_2"
  attr {
    key: "Index"
    value {
      type: DT_INT32
    }
  }
  attr {
    key: "T"
    value {
      type: DT_FLOAT
    }
  }
  attr {
    key: "begin_mask"
    value {
      i: 0
    }
  }
  attr {
    key: "ellipsis_mask"
    value {
      i: 0
    }
  }
  attr {
    key: "end_mask"
    value {
      i: 0
    }
  }
  attr {
    key: "new_axis_mask"
    value {
      i: 0
    }
  }
  attr {
    key: "shrink_axis_mask"
    value {
      i: 1
    }
  }
}
node {
  name: "bidirectional_1/backward_lstm_1/transpose_1/perm"
  op: "Const"
  attr {
    key: "dtype"
    value {
      type: DT_INT32
    }
  }
  attr {
    key: "value"
    value {
      tensor {
        dtype: DT_INT32
        tensor_shape {
          dim {
            size: 3
          }
        }
        tensor_content: "\001\000\000\000\000\000\000\000\002\000\000\000"
      }
    }
  }
}
node {
  name: "bidirectional_1/backward_lstm_1/transpose_1"
  op: "Transpose"
  input: "bidirectional_1/backward_lstm_1/TensorArrayStack/TensorArrayGatherV3"
  input: "bidirectional_1/backward_lstm_1/transpose_1/perm"
  attr {
    key: "T"
    value {
      type: DT_FLOAT
    }
  }
  attr {
    key: "Tperm"
    value {
      type: DT_INT32
    }
  }
}
node {
  name: "bidirectional_1/ReverseV2/axis"
  op: "Const"
  attr {
    key: "dtype"
    value {
      type: DT_INT32
    }
  }
  attr {
    key: "value"
    value {
      tensor {
        dtype: DT_INT32
        tensor_shape {
          dim {
            size: 1
          }
        }
        int_val: 1
      }
    }
  }
}
node {
  name: "bidirectional_1/ReverseV2"
  op: "ReverseV2"
  input: "bidirectional_1/backward_lstm_1/transpose_1"
  input: "bidirectional_1/ReverseV2/axis"
  attr {
    key: "T"
    value {
      type: DT_FLOAT
    }
  }
  attr {
    key: "Tidx"
    value {
      type: DT_INT32
    }
  }
}
node {
  name: "bidirectional_1/concat/axis"
  op: "Const"
  attr {
    key: "dtype"
    value {
      type: DT_INT32
    }
  }
  attr {
    key: "value"
    value {
      tensor {
        dtype: DT_INT32
        tensor_shape {
        }
        int_val: 2
      }
    }
  }
}
node {
  name: "bidirectional_1/concat"
  op: "ConcatV2"
  input: "bidirectional_1/forward_lstm_1/transpose_1"
  input: "bidirectional_1/ReverseV2"
  input: "bidirectional_1/concat/axis"
  attr {
    key: "N"
    value {
      i: 2
    }
  }
  attr {
    key: "T"
    value {
      type: DT_FLOAT
    }
  }
  attr {
    key: "Tidx"
    value {
      type: DT_INT32
    }
  }
}
node {
  name: "global_max_pooling1d_1/Max/reduction_indices"
  op: "Const"
  attr {
    key: "dtype"
    value {
      type: DT_INT32
    }
  }
  attr {
    key: "value"
    value {
      tensor {
        dtype: DT_INT32
        tensor_shape {
        }
        int_val: 1
      }
    }
  }
}
node {
  name: "global_max_pooling1d_1/Max"
  op: "Max"
  input: "bidirectional_1/concat"
  input: "global_max_pooling1d_1/Max/reduction_indices"
  attr {
    key: "T"
    value {
      type: DT_FLOAT
    }
  }
  attr {
    key: "Tidx"
    value {
      type: DT_INT32
    }
  }
  attr {
    key: "keep_dims"
    value {
      b: false
    }
  }
}
node {
  name: "dense_1/kernel/Initializer/random_uniform/shape"
  op: "Const"
  attr {
    key: "_class"
    value {
      list {
        s: "loc:@dense_1/kernel"
      }
    }
  }
  attr {
    key: "dtype"
    value {
      type: DT_INT32
    }
  }
  attr {
    key: "value"
    value {
      tensor {
        dtype: DT_INT32
        tensor_shape {
          dim {
            size: 2
          }
        }
        tensor_content: "\000\001\000\000\001\000\000\000"
      }
    }
  }
}
node {
  name: "dense_1/kernel/Initializer/random_uniform/min"
  op: "Const"
  attr {
    key: "_class"
    value {
      list {
        s: "loc:@dense_1/kernel"
      }
    }
  }
  attr {
    key: "dtype"
    value {
      type: DT_FLOAT
    }
  }
  attr {
    key: "value"
    value {
      tensor {
        dtype: DT_FLOAT
        tensor_shape {
        }
        float_val: -0.1527949720621109
      }
    }
  }
}
node {
  name: "dense_1/kernel/Initializer/random_uniform/max"
  op: "Const"
  attr {
    key: "_class"
    value {
      list {
        s: "loc:@dense_1/kernel"
      }
    }
  }
  attr {
    key: "dtype"
    value {
      type: DT_FLOAT
    }
  }
  attr {
    key: "value"
    value {
      tensor {
        dtype: DT_FLOAT
        tensor_shape {
        }
        float_val: 0.1527949720621109
      }
    }
  }
}
node {
  name: "dense_1/kernel/Initializer/random_uniform/RandomUniform"
  op: "RandomUniform"
  input: "dense_1/kernel/Initializer/random_uniform/shape"
  attr {
    key: "T"
    value {
      type: DT_INT32
    }
  }
  attr {
    key: "_class"
    value {
      list {
        s: "loc:@dense_1/kernel"
      }
    }
  }
  attr {
    key: "dtype"
    value {
      type: DT_FLOAT
    }
  }
  attr {
    key: "seed"
    value {
      i: 0
    }
  }
  attr {
    key: "seed2"
    value {
      i: 0
    }
  }
}
node {
  name: "dense_1/kernel/Initializer/random_uniform/sub"
  op: "Sub"
  input: "dense_1/kernel/Initializer/random_uniform/max"
  input: "dense_1/kernel/Initializer/random_uniform/min"
  attr {
    key: "T"
    value {
      type: DT_FLOAT
    }
  }
  attr {
    key: "_class"
    value {
      list {
        s: "loc:@dense_1/kernel"
      }
    }
  }
}
node {
  name: "dense_1/kernel/Initializer/random_uniform/mul"
  op: "Mul"
  input: "dense_1/kernel/Initializer/random_uniform/RandomUniform"
  input: "dense_1/kernel/Initializer/random_uniform/sub"
  attr {
    key: "T"
    value {
      type: DT_FLOAT
    }
  }
  attr {
    key: "_class"
    value {
      list {
        s: "loc:@dense_1/kernel"
      }
    }
  }
}
node {
  name: "dense_1/kernel/Initializer/random_uniform"
  op: "Add"
  input: "dense_1/kernel/Initializer/random_uniform/mul"
  input: "dense_1/kernel/Initializer/random_uniform/min"
  attr {
    key: "T"
    value {
      type: DT_FLOAT
    }
  }
  attr {
    key: "_class"
    value {
      list {
        s: "loc:@dense_1/kernel"
      }
    }
  }
}
node {
  name: "dense_1/kernel"
  op: "VarHandleOp"
  attr {
    key: "_class"
    value {
      list {
        s: "loc:@dense_1/kernel"
      }
    }
  }
  attr {
    key: "container"
    value {
      s: ""
    }
  }
  attr {
    key: "dtype"
    value {
      type: DT_FLOAT
    }
  }
  attr {
    key: "shape"
    value {
      shape {
        dim {
          size: 256
        }
        dim {
          size: 1
        }
      }
    }
  }
  attr {
    key: "shared_name"
    value {
      s: "dense_1/kernel"
    }
  }
}
node {
  name: "dense_1/kernel/IsInitialized/VarIsInitializedOp"
  op: "VarIsInitializedOp"
  input: "dense_1/kernel"
}
node {
  name: "dense_1/kernel/Assign"
  op: "AssignVariableOp"
  input: "dense_1/kernel"
  input: "dense_1/kernel/Initializer/random_uniform"
  attr {
    key: "dtype"
    value {
      type: DT_FLOAT
    }
  }
}
node {
  name: "dense_1/kernel/Read/ReadVariableOp"
  op: "ReadVariableOp"
  input: "dense_1/kernel"
  attr {
    key: "dtype"
    value {
      type: DT_FLOAT
    }
  }
}
node {
  name: "dense_1/bias/Initializer/zeros"
  op: "Const"
  attr {
    key: "_class"
    value {
      list {
        s: "loc:@dense_1/bias"
      }
    }
  }
  attr {
    key: "dtype"
    value {
      type: DT_FLOAT
    }
  }
  attr {
    key: "value"
    value {
      tensor {
        dtype: DT_FLOAT
        tensor_shape {
          dim {
            size: 1
          }
        }
        float_val: 0.0
      }
    }
  }
}
node {
  name: "dense_1/bias"
  op: "VarHandleOp"
  attr {
    key: "_class"
    value {
      list {
        s: "loc:@dense_1/bias"
      }
    }
  }
  attr {
    key: "container"
    value {
      s: ""
    }
  }
  attr {
    key: "dtype"
    value {
      type: DT_FLOAT
    }
  }
  attr {
    key: "shape"
    value {
      shape {
        dim {
          size: 1
        }
      }
    }
  }
  attr {
    key: "shared_name"
    value {
      s: "dense_1/bias"
    }
  }
}
node {
  name: "dense_1/bias/IsInitialized/VarIsInitializedOp"
  op: "VarIsInitializedOp"
  input: "dense_1/bias"
}
node {
  name: "dense_1/bias/Assign"
  op: "AssignVariableOp"
  input: "dense_1/bias"
  input: "dense_1/bias/Initializer/zeros"
  attr {
    key: "dtype"
    value {
      type: DT_FLOAT
    }
  }
}
node {
  name: "dense_1/bias/Read/ReadVariableOp"
  op: "ReadVariableOp"
  input: "dense_1/bias"
  attr {
    key: "dtype"
    value {
      type: DT_FLOAT
    }
  }
}
node {
  name: "dense_1/MatMul/ReadVariableOp"
  op: "ReadVariableOp"
  input: "dense_1/kernel"
  attr {
    key: "dtype"
    value {
      type: DT_FLOAT
    }
  }
}
node {
  name: "dense_1/MatMul"
  op: "MatMul"
  input: "global_max_pooling1d_1/Max"
  input: "dense_1/MatMul/ReadVariableOp"
  attr {
    key: "T"
    value {
      type: DT_FLOAT
    }
  }
  attr {
    key: "transpose_a"
    value {
      b: false
    }
  }
  attr {
    key: "transpose_b"
    value {
      b: false
    }
  }
}
node {
  name: "dense_1/BiasAdd/ReadVariableOp"
  op: "ReadVariableOp"
  input: "dense_1/bias"
  attr {
    key: "dtype"
    value {
      type: DT_FLOAT
    }
  }
}
node {
  name: "dense_1/BiasAdd"
  op: "BiasAdd"
  input: "dense_1/MatMul"
  input: "dense_1/BiasAdd/ReadVariableOp"
  attr {
    key: "T"
    value {
      type: DT_FLOAT
    }
  }
  attr {
    key: "data_format"
    value {
      s: "NHWC"
    }
  }
}
node {
  name: "dense_1/Sigmoid"
  op: "Sigmoid"
  input: "dense_1/BiasAdd"
  attr {
    key: "T"
    value {
      type: DT_FLOAT
    }
  }
}
node {
  name: "Placeholder_8"
  op: "Placeholder"
  attr {
    key: "dtype"
    value {
      type: DT_FLOAT
    }
  }
  attr {
    key: "shape"
    value {
      shape {
        dim {
          size: -1
        }
        dim {
          size: -1
        }
      }
    }
  }
}
node {
  name: "AssignVariableOp_8"
  op: "AssignVariableOp"
  input: "bidirectional_1/forward_lstm/kernel"
  input: "Placeholder_8"
  attr {
    key: "dtype"
    value {
      type: DT_FLOAT
    }
  }
}
node {
  name: "ReadVariableOp_8"
  op: "ReadVariableOp"
  input: "bidirectional_1/forward_lstm/kernel"
  input: "^AssignVariableOp_8"
  attr {
    key: "dtype"
    value {
      type: DT_FLOAT
    }
  }
}
node {
  name: "Placeholder_9"
  op: "Placeholder"
  attr {
    key: "dtype"
    value {
      type: DT_FLOAT
    }
  }
  attr {
    key: "shape"
    value {
      shape {
        dim {
          size: -1
        }
        dim {
          size: -1
        }
      }
    }
  }
}
node {
  name: "AssignVariableOp_9"
  op: "AssignVariableOp"
  input: "bidirectional_1/forward_lstm/recurrent_kernel"
  input: "Placeholder_9"
  attr {
    key: "dtype"
    value {
      type: DT_FLOAT
    }
  }
}
node {
  name: "ReadVariableOp_9"
  op: "ReadVariableOp"
  input: "bidirectional_1/forward_lstm/recurrent_kernel"
  input: "^AssignVariableOp_9"
  attr {
    key: "dtype"
    value {
      type: DT_FLOAT
    }
  }
}
node {
  name: "Placeholder_10"
  op: "Placeholder"
  attr {
    key: "dtype"
    value {
      type: DT_FLOAT
    }
  }
  attr {
    key: "shape"
    value {
      shape {
        dim {
          size: -1
        }
      }
    }
  }
}
node {
  name: "AssignVariableOp_10"
  op: "AssignVariableOp"
  input: "bidirectional_1/forward_lstm/bias"
  input: "Placeholder_10"
  attr {
    key: "dtype"
    value {
      type: DT_FLOAT
    }
  }
}
node {
  name: "ReadVariableOp_10"
  op: "ReadVariableOp"
  input: "bidirectional_1/forward_lstm/bias"
  input: "^AssignVariableOp_10"
  attr {
    key: "dtype"
    value {
      type: DT_FLOAT
    }
  }
}
node {
  name: "Placeholder_11"
  op: "Placeholder"
  attr {
    key: "dtype"
    value {
      type: DT_FLOAT
    }
  }
  attr {
    key: "shape"
    value {
      shape {
        dim {
          size: -1
        }
        dim {
          size: -1
        }
      }
    }
  }
}
node {
  name: "AssignVariableOp_11"
  op: "AssignVariableOp"
  input: "bidirectional_1/backward_lstm/kernel"
  input: "Placeholder_11"
  attr {
    key: "dtype"
    value {
      type: DT_FLOAT
    }
  }
}
node {
  name: "ReadVariableOp_11"
  op: "ReadVariableOp"
  input: "bidirectional_1/backward_lstm/kernel"
  input: "^AssignVariableOp_11"
  attr {
    key: "dtype"
    value {
      type: DT_FLOAT
    }
  }
}
node {
  name: "Placeholder_12"
  op: "Placeholder"
  attr {
    key: "dtype"
    value {
      type: DT_FLOAT
    }
  }
  attr {
    key: "shape"
    value {
      shape {
        dim {
          size: -1
        }
        dim {
          size: -1
        }
      }
    }
  }
}
node {
  name: "AssignVariableOp_12"
  op: "AssignVariableOp"
  input: "bidirectional_1/backward_lstm/recurrent_kernel"
  input: "Placeholder_12"
  attr {
    key: "dtype"
    value {
      type: DT_FLOAT
    }
  }
}
node {
  name: "ReadVariableOp_12"
  op: "ReadVariableOp"
  input: "bidirectional_1/backward_lstm/recurrent_kernel"
  input: "^AssignVariableOp_12"
  attr {
    key: "dtype"
    value {
      type: DT_FLOAT
    }
  }
}
node {
  name: "Placeholder_13"
  op: "Placeholder"
  attr {
    key: "dtype"
    value {
      type: DT_FLOAT
    }
  }
  attr {
    key: "shape"
    value {
      shape {
        dim {
          size: -1
        }
      }
    }
  }
}
node {
  name: "AssignVariableOp_13"
  op: "AssignVariableOp"
  input: "bidirectional_1/backward_lstm/bias"
  input: "Placeholder_13"
  attr {
    key: "dtype"
    value {
      type: DT_FLOAT
    }
  }
}
node {
  name: "ReadVariableOp_13"
  op: "ReadVariableOp"
  input: "bidirectional_1/backward_lstm/bias"
  input: "^AssignVariableOp_13"
  attr {
    key: "dtype"
    value {
      type: DT_FLOAT
    }
  }
}
node {
  name: "Placeholder_14"
  op: "Placeholder"
  attr {
    key: "dtype"
    value {
      type: DT_FLOAT
    }
  }
  attr {
    key: "shape"
    value {
      shape {
        dim {
          size: -1
        }
        dim {
          size: -1
        }
      }
    }
  }
}
node {
  name: "AssignVariableOp_14"
  op: "AssignVariableOp"
  input: "dense_1/kernel"
  input: "Placeholder_14"
  attr {
    key: "dtype"
    value {
      type: DT_FLOAT
    }
  }
}
node {
  name: "ReadVariableOp_14"
  op: "ReadVariableOp"
  input: "dense_1/kernel"
  input: "^AssignVariableOp_14"
  attr {
    key: "dtype"
    value {
      type: DT_FLOAT
    }
  }
}
node {
  name: "Placeholder_15"
  op: "Placeholder"
  attr {
    key: "dtype"
    value {
      type: DT_FLOAT
    }
  }
  attr {
    key: "shape"
    value {
      shape {
        dim {
          size: -1
        }
      }
    }
  }
}
node {
  name: "AssignVariableOp_15"
  op: "AssignVariableOp"
  input: "dense_1/bias"
  input: "Placeholder_15"
  attr {
    key: "dtype"
    value {
      type: DT_FLOAT
    }
  }
}
node {
  name: "ReadVariableOp_15"
  op: "ReadVariableOp"
  input: "dense_1/bias"
  input: "^AssignVariableOp_15"
  attr {
    key: "dtype"
    value {
      type: DT_FLOAT
    }
  }
}
node {
  name: "VarIsInitializedOp_8"
  op: "VarIsInitializedOp"
  input: "bidirectional_1/backward_lstm/recurrent_kernel"
}
node {
  name: "VarIsInitializedOp_9"
  op: "VarIsInitializedOp"
  input: "bidirectional_1/forward_lstm/kernel"
}
node {
  name: "VarIsInitializedOp_10"
  op: "VarIsInitializedOp"
  input: "bidirectional_1/forward_lstm/recurrent_kernel"
}
node {
  name: "VarIsInitializedOp_11"
  op: "VarIsInitializedOp"
  input: "bidirectional_1/forward_lstm/bias"
}
node {
  name: "VarIsInitializedOp_12"
  op: "VarIsInitializedOp"
  input: "dense_1/bias"
}
node {
  name: "VarIsInitializedOp_13"
  op: "VarIsInitializedOp"
  input: "dense_1/kernel"
}
node {
  name: "VarIsInitializedOp_14"
  op: "VarIsInitializedOp"
  input: "bidirectional_1/backward_lstm/kernel"
}
node {
  name: "VarIsInitializedOp_15"
  op: "VarIsInitializedOp"
  input: "bidirectional_1/backward_lstm/bias"
}
node {
  name: "init_1"
  op: "NoOp"
  input: "^bidirectional_1/backward_lstm/bias/Assign"
  input: "^bidirectional_1/backward_lstm/kernel/Assign"
  input: "^bidirectional_1/backward_lstm/recurrent_kernel/Assign"
  input: "^bidirectional_1/forward_lstm/bias/Assign"
  input: "^bidirectional_1/forward_lstm/kernel/Assign"
  input: "^bidirectional_1/forward_lstm/recurrent_kernel/Assign"
  input: "^dense_1/bias/Assign"
  input: "^dense_1/kernel/Assign"
}
node {
  name: "strided_slice/stack"
  op: "Const"
  attr {
    key: "dtype"
    value {
      type: DT_INT32
    }
  }
  attr {
    key: "value"
    value {
      tensor {
        dtype: DT_INT32
        tensor_shape {
          dim {
            size: 1
          }
        }
        int_val: 0
      }
    }
  }
}
node {
  name: "strided_slice/stack_1"
  op: "Const"
  attr {
    key: "dtype"
    value {
      type: DT_INT32
    }
  }
  attr {
    key: "value"
    value {
      tensor {
        dtype: DT_INT32
        tensor_shape {
          dim {
            size: 1
          }
        }
        int_val: 1
      }
    }
  }
}
node {
  name: "strided_slice/stack_2"
  op: "Const"
  attr {
    key: "dtype"
    value {
      type: DT_INT32
    }
  }
  attr {
    key: "value"
    value {
      tensor {
        dtype: DT_INT32
        tensor_shape {
          dim {
            size: 1
          }
        }
        int_val: 1
      }
    }
  }
}
node {
  name: "strided_slice"
  op: "StridedSlice"
  input: "dense_1/Sigmoid"
  input: "strided_slice/stack"
  input: "strided_slice/stack_1"
  input: "strided_slice/stack_2"
  attr {
    key: "Index"
    value {
      type: DT_INT32
    }
  }
  attr {
    key: "T"
    value {
      type: DT_FLOAT
    }
  }
  attr {
    key: "begin_mask"
    value {
      i: 0
    }
  }
  attr {
    key: "ellipsis_mask"
    value {
      i: 0
    }
  }
  attr {
    key: "end_mask"
    value {
      i: 0
    }
  }
  attr {
    key: "new_axis_mask"
    value {
      i: 0
    }
  }
  attr {
    key: "shrink_axis_mask"
    value {
      i: 1
    }
  }
}
node {
  name: "output0"
  op: "Identity"
  input: "strided_slice"
  attr {
    key: "T"
    value {
      type: DT_FLOAT
    }
  }
}
versions {
  producer: 134
}
